yoda_weights.pth (torch, 391238 bytes, 42 tensors)

token_embedding_table.weight f4 [63, 48]
0	0xbd583224	-0.052782193
1	0xbe9939d8	-0.29926944
2	0xbdc51c9c	-0.096245974
3	0xbf8403dc	-1.0313678
4	0xbe1a1222	-0.1504598
5	0x3e165ddd	0.14684244
6	0x3fbb39e3	1.4627041
7	0x3eb13b9b	0.34615788
8	0x3f51f02f	0.82007116
9	0x3fb52aa4	1.4153638
10	0xbfa085b2	-1.25408
11	0xbf5bcef7	-0.8586268
12	0x3f71dee0	0.94480705
13	0xbee81a91	-0.4533277
14	0xbf057b59	-0.5214134
15	0x3fd4b8ab	1.6618856
16	0x3fcefa18	1.6170073
17	0xbe767b6f	-0.24070524
18	0x3f029940	0.5101509
19	0x3f70c3c7	0.9404873
20	0xc00ef145	-2.233476
21	0x3f0709ad	0.5274914
22	0x3fdcabc2	1.7239916
23	0x3f4ef709	0.80845696
24	0x3eede3a4	0.4646274
25	0xbfd46c2a	-1.6595509
26	0xbfaecd53	-1.365641
27	0xbf6042d7	-0.8760199
28	0x3ef4bfc7	0.47802565
29	0xbe86fb71	-0.2636371
30	0x3fada218	1.3565092
31	0x402b22c1	2.6739962
32	0xbe8db539	-0.27677324
33	0xbf7831db	-0.96951073
34	0x3fd5d93e	1.6706922
35	0xbcba029e	-0.022706326
36	0xbef406be	-0.47661394
37	0x3f63fb3c	0.8905523
38	0xbf1fa59b	-0.6236207
39	0xbe008be1	-0.1255336
40	0xbf007ec1	-0.5019341
41	0xbf993032	-1.1967833
42	0x3e293c58	0.16526926
43	0xbfc723de	-1.5557821
44	0xbfb9ed53	-1.4525551
45	0x3f262c0b	0.64910954
46	0xbf6f21ae	-0.93410766
47	0xbfa0c659	-1.2560531
48	0x3fd12836	1.6340396
49	0xbf8944f7	-1.0724171
50	0x3fa9f459	1.3277694
51	0xbe92ae5e	-0.28648657
52	0xbfd3cb9d	-1.6546513
53	0x3fe3d6ff	1.7799987
54	0x4014f8cd	2.3276856
55	0xbfcb57ea	-1.5886204
56	0x3fd2b167	1.6460389
57	0xbf7a8cb4	-0.97870946
58	0x3f363b89	0.71184593
59	0xbdf23405	-0.11826328
60	0x3f500e79	0.81272084
61	0x3fa57a87	1.2928017
62	0x3fb2c21a	1.3965485
63	0xbd9bb226	-0.076023385
64	0xbf4f1b78	-0.8090129
65	0x3f064e95	0.52463657
66	0xbf060105	-0.52345306
67	0xbea061f5	-0.31324735
68	0xbe6dbecb	-0.23217313
69	0x3f026f12	0.5095073
70	0xbdb022f4	-0.08600417
71	0xbf08e43c	-0.5347326
72	0x3fe88906	1.8166816
73	0xbf1b2f09	-0.60618645
74	0x3e4f3d8a	0.20238319
75	0x3f13791a	0.5760666
76	0xbfb17623	-1.3864177
77	0x3f3a1864	0.7269347
78	0x3e07a997	0.13248287
79	0x3eaa17b4	0.3322121
80	0x40166c7f	2.350372
81	0xbfafe04a	-1.3740323
82	0x3f4096be	0.75230014
83	0x3f2aae63	0.66672343
84	0xbfafd63d	-1.3737255
85	0xbfb7f54e	-1.4371736
86	0x3f4f6d2d	0.81025964
87	0xbe03e695	-0.12880929
88	0xbaa3c526	-0.0012494668
89	0xbee7cb74	-0.4527241
90	0x3e8188fb	0.2529982
91	0xbf268552	-0.6504718
92	0xbe89d238	-0.26918197
93	0xbec16144	-0.3776952
94	0xbf6cad73	-0.9245216
95	0xbe6f4f83	-0.23370175
96	0xbf2bdbae	-0.6713208
97	0xc000f251	-2.0147898
98	0x3e0b8e62	0.13628533
99	0x3fbfb2ce	1.4976442
100	0xbf3a1a4a	-0.72696364
101	0x3dbe585a	0.092941955
102	0xbf25a75b	-0.6470849
103	0x3e02a6ac	0.12758893
104	0x3f3501e6	0.7070602
105	0xbf00e19d	-0.5034426
106	0xbdce2fb9	-0.10067696
107	0x3ea3d4e0	0.31998348
108	0x3ed3b644	0.41349995
109	0x3ff196ef	1.8874186
110	0xbf03cece	-0.51487434
111	0xbf399df9	-0.7250667
112	0x3ee7eaf6	0.45296448
113	0x3ed93695	0.42424455
114	0x3f88f712	1.07004
115	0xc00a902a	-2.165049
116	0xbf0ac8af	-0.5421247
117	0x3f3c427d	0.73538953
118	0xbfd94974	-1.6975541
119	0x3f85718a	1.0425274
120	0x3fbca671	1.4738294
121	0x3f6720fd	0.9028471
122	0x3e091d18	0.13390005
123	0xbfb7dbfe	-1.4364011
124	0x3d911913	0.07084861
125	0x3f091dc3	0.5356104
126	0xbf4729aa	-0.7779795
127	0xbf67026c	-0.9023807
128	0xbfaea628	-1.3644457
129	0x3f8c5977	1.0964803
130	0x3f1b28c2	0.60609066
131	0x3c13c05e	0.009018032
132	0x3f890d52	1.070719
133	0x401bdebb	2.4354694
134	0xbf629cec	-0.88520694
135	0xc0093beb	-2.144282
136	0x3eaa77bf	0.33294484
137	0xbe865ea7	-0.2624409
138	0x3e3ea7a0	0.18618631
139	0x3e0ccc01	0.13749696
140	0x3f4ba393	0.7954647
141	0xbf385acf	-0.7201356
142	0x3e07548d	0.13215847
143	0x3f03be66	0.514624
144	0x400cfbba	2.2028642
145	0x3f3dded5	0.7416814
146	0xbff29342	-1.895119
147	0xbe35c493	-0.17750768
148	0xbf52e3a0	-0.8237858
149	0xbedc4beb	-0.4302667
150	0xbd8ca258	-0.06866902
151	0x3f99ce57	1.2016095
152	0xbe90d638	-0.28288436
153	0x3fa97e1f	1.3241614
154	0x3f35817d	0.7090071
155	0xbeb12213	-0.3459631
156	0xbee282a0	-0.44240284
157	0xbf9a5d53	-1.205973
158	0x3f21cb84	0.63201165
159	0x3db1a3f2	0.08673848
160	0xbe11292b	-0.1417586
161	0xbf11c139	-0.5693546
162	0x3e03e644	0.12880808
163	0x3fd0a55e	1.6300466
164	0xc04d8713	-3.2113693
165	0x3f0cd0d0	0.5500612
166	0xbdc8db45	-0.09807447
167	0xbef14920	-0.47126102
168	0x3ebb919e	0.36634535
169	0x3ff757f8	1.9323721
170	0xbf4e6153	-0.80617255
171	0xbef241b0	-0.4731574
172	0xbfc6dcbc	-1.5536113
173	0xbea9ed59	-0.33188894
174	0xbfaf51a8	-1.3696795
175	0xbf2de9e7	-0.6793503
176	0x3e206ade	0.15665767
177	0xbfba2091	-1.4541188
178	0x3eb0fb2b	0.34566626
179	0x3f3e166a	0.7425295
180	0x3f413d17	0.7548384
181	0x3fc148a9	1.5100299
182	0xbf9f1e9f	-1.243122
183	0x3f74b9e1	0.9559613
184	0x3e5a4a86	0.21317491
185	0x3cd2ad42	0.025717381
186	0x3f2df2c2	0.67948544
187	0xbfcbe7d9	-1.5930129
188	0xbf77f230	-0.96853924
189	0x401c327a	2.4405808
190	0xbe4acf72	-0.19805697
191	0x3f9c0e34	1.2191834
192	0x3f3dffff	0.74218744
193	0xbdf7c1ce	-0.12097512
194	0x3fc53747	1.5407494
195	0x3f9d78c6	1.2302482
196	0x3f733464	0.95001817
197	0xbff686de	-1.9259908
198	0x3eb341dc	0.35011184
199	0x3db4b122	0.08822848
200	0x3f8981cb	1.0742735
201	0xc008e31d	-2.138862
202	0x3f98aec6	1.1928337
203	0x3f01b963	0.506735
204	0xbfa970bf	-1.3237532
205	0xbfa03623	-1.2516521
206	0x3eadff39	0.33983782
207	0x3f421cac	0.75825
208	0x3fc15149	1.5102931
209	0x3eac168d	0.33610955
210	0xbfac870e	-1.3478715
211	0xc0015f58	-2.0214443
212	0x3f2a5dee	0.66549575
213	0x3f623804	0.88366723
214	0x3f2d9bec	0.6781604
215	0x3fa9fa3f	1.3279494
216	0x3f888755	1.06663
217	0x3eba62cd	0.36403504
218	0xbe8db351	-0.2767587
219	0x3e012c0c	0.12614459
220	0xbf35dab4	-0.7103684
221	0x3f861103	1.0473942
222	0xbf2a7977	-0.6659159
223	0xbfaf4730	-1.36936
224	0xbf7b2efa	-0.98118556
225	0x3fb6f36a	1.4293034
226	0x3ecbe312	0.39821678
227	0xbf3f5202	-0.7473451
228	0xbf3384ed	-0.70124704
229	0xbecc40dc	-0.39893234
230	0x3f0a0c47	0.53924984
231	0x3e4568de	0.19278285
232	0xbf073eb5	-0.5283006
233	0xbe765d86	-0.24059114
234	0x3d560daa	0.052259125
235	0xc00096d0	-2.0092049
236	0xbfae7c7d	-1.3631741
237	0x3eea3f6d	0.45751515
238	0x3d2c0b3f	0.042002913
239	0x3eb0f9a9	0.34565476
240	0x4010005f	2.2500226
241	0xbebbd8a3	-0.36688718
242	0xbef8b92d	-0.48578778
243	0xbf995b26	-1.1980941
244	0x3f69d0b4	0.9133408
245	0xbbd3b19a	-0.0064603807
246	0x3cb2f1b4	0.021843769
247	0xbea4101a	-0.32043535
248	0x3e1ef8d2	0.15524605
249	0x3eee6885	0.46564117
250	0xbfc15f46	-1.51072
251	0xbfc0e9ac	-1.5071311
252	0x3ed0a7ec	0.40753114
253	0xbfb6d8dc	-1.428493
254	0xbf6e5ae7	-0.93107456
255	0x3f2b405b	0.66895074

position_embedding_table.weight f4 [64, 48]
0	0x3f9a3e16	1.2050197
1	0xbf66795b	-0.90028924
2	0x3ef82b2d	0.4847044
3	0xbf885e88	-1.0653849
4	0x3f51fe75	0.82028896
5	0x3f3c4f7a	0.7355877
6	0xbf4373e4	-0.7634871
7	0xbe8951dd	-0.2682027
8	0xbfbb9a68	-1.4656496
9	0xbf64f87d	-0.89441663
10	0x3efc6c43	0.49301347
11	0x3cf5d6d9	0.030009674
12	0x3fc8389c	1.5642276
13	0x3ffb5c57	1.9637555
14	0x3f17b8fe	0.5926665
15	0x3f746793	0.9547054
16	0x3f7196b0	0.94370556
17	0xbfd7138a	-1.6802838
18	0xbffc9aea	-1.9734776
19	0x3d79d84c	0.060997292
20	0xbf957026	-1.167485
21	0x3fa7180c	1.3054214
22	0x3f6ccb29	0.924975
23	0x403eddda	2.9822907
24	0xc00558c1	-2.083542
25	0x3f98a020	1.1923866
26	0xbfe09a00	-1.7546997
27	0xbff445a1	-1.9083749
28	0xbf6b6b59	-0.91960675
29	0xbfbe60f1	-1.4873334
30	0x3f802be6	1.0013397
31	0x400655e6	2.0989928
32	0x3cd12750	0.025531441
33	0xbfa48c38	-1.2855291
34	0xbf7db151	-0.9909869
35	0xbf868911	-1.0510579
36	0xbf152409	-0.5825811
37	0x3e61029c	0.21973652
38	0x405e80dd	3.4766152
39	0x3fb8395c	1.4392505
40	0xbe1c6a29	-0.15274872
41	0xbf9cdc3f	-1.2254714
42	0xbfe509b5	-1.7893587
43	0x4003ad97	2.05747
44	0x400baef2	2.1825528
45	0x400a57fb	2.16162
46	0x3fa066bd	1.2531353
47	0x3e579f6d	0.2105691
48	0x3f6f8595	0.93563205
49	0x3e96edf7	0.29478428
50	0x3f22a302	0.6352998
51	0xbdce8bf7	-0.1008529
52	0x3c953e6d	0.018218243
53	0xbec07ef5	-0.3759686
54	0x3ec42e04	0.38316357
55	0xbfb41946	-1.4070213
56	0x3f4fbd65	0.8114837
57	0x3f61ec5a	0.8825127
58	0x4000a66e	2.010158
59	0x3fbc403d	1.4707104
60	0xbee0e0e7	-0.43921587
61	0x3f7263b6	0.94683397
62	0xbf44dc4f	-0.76898664
63	0x3ea94e29	0.33067444
64	0xbfd0268a	-1.6261761
65	0xbf3e7a0b	-0.7440497
66	0x3f6d430f	0.9268045
67	0x3f0b59a0	0.5443363
68	0xbf6055fc	-0.876312
69	0xbe0c3cb9	-0.13695039
70	0x3dac8b28	0.084249794
71	0x3fab0636	1.336127
72	0xbe89eeef	-0.26940104
73	0xbeace8d3	-0.3377138
74	0xbebf40e9	-0.3735421
75	0xbf210787	-0.6290211
76	0x3de0bee5	0.1097391
77	0xbf162df0	-0.58663845
78	0x3eaadfe1	0.3337393
79	0x3bf523ea	0.007481088
80	0xbeca81f9	-0.39552286
81	0xbef17db4	-0.47166216
82	0xbdf0662a	-0.11738236
83	0xbe6d3553	-0.23164873
84	0xbf55a9ed	-0.8346241
85	0x3f4b71ab	0.7947032
86	0x3f97dde1	1.1864587
87	0x3ed033db	0.40664563
88	0xbec8fd94	-0.39255965
89	0xbf33f57d	-0.7029646
90	0xbff78f35	-1.9340578
91	0x3fac3bd8	1.3455763
92	0x3f982623	1.1886638
93	0x3fc44dd9	1.5336257
94	0x3f94aac8	1.1614618
95	0xbf30c4c1	-0.6905022
96	0x3eed486b	0.46344313
97	0xbeaa9d9a	-0.33323365
98	0xbf87437b	-1.0567468
99	0x3efbb7fe	0.49163812
100	0xbf5d79e4	-0.86514115
101	0xbf531328	-0.82451105
102	0xbd1d6ef8	-0.038435906
103	0xc00680f8	-2.1016216
104	0xbe771cae	-0.24132034
105	0x3e1da0ef	0.15393423
106	0x3ec8fbeb	0.39254698
107	0x3fc9baab	1.5760092
108	0x3fa90c62	1.3206904
109	0xbf60539f	-0.87627596
110	0xbf07f245	-0.5310405
111	0xbeb6931e	-0.35659117
112	0xbfcf2a01	-1.6184694
113	0xbfd489cd	-1.6604553
114	0x3e87edb5	0.26548544
115	0xbd26ca4d	-0.040720273
116	0xbcc633f7	-0.0241947
117	0x3ecb8f91	0.3975797
118	0x3f3083f0	0.6895132
119	0x4006a4ca	2.103808
120	0xbeb815fc	-0.35954273
121	0xbe81e0f9	-0.25366953
122	0x3f11c010	0.5693369
123	0xbf159a93	-0.58438987
124	0x3e444987	0.19168673
125	0xbe8b434f	-0.2719979
126	0x3f238e79	0.6388927
127	0xbf9c2ca2	-1.2201121
128	0xbf56d98a	-0.8392569
129	0xbf805842	-1.0026934
130	0xbf321a73	-0.6957161
131	0xbf819e51	-1.0126439
132	0x3d22a3d8	0.039707035
133	0xbf5f6bd4	-0.8727391
134	0xbc613075	-0.013744463
135	0xbf0612a9	-0.52372223
136	0x3e989bca	0.29806358
137	0xbf7cc8b9	-0.9874378
138	0xbf4a9169	-0.7912813
139	0x3f84bea4	1.0370679
140	0xbe316cbc	-0.17326635
141	0x3f2c33d1	0.67266566
142	0x3d4e2c56	0.05033525
143	0xbf88a497	-1.0675229
144	0x3f0477a4	0.5174506
145	0xbe3820d3	-0.17981271
146	0xbed21e10	-0.4103856
147	0x3e65bb74	0.22434789
148	0xbea5a29f	-0.32350633
149	0x3e476a63	0.19474177
150	0x3e568277	0.20948206
151	0xbfc349a3	-1.5256847
152	0xbf28af19	-0.6589218
153	0x3db4380e	0.08799754
154	0xbdaed2a8	-0.08536273
155	0x3faf0a95	1.3675104
156	0xbdbf7f60	-0.09350467
157	0xbf1a61bc	-0.6030538
158	0x3fb901ee	1.4453714
159	0x3da525a9	0.08063824
160	0xbf373026	-0.71557844
161	0xbf6887d1	-0.9083224
162	0xbee8e147	-0.45484373
163	0x3f1d1d56	0.6137289
164	0x3f180eb6	0.5939745
165	0x3f8b9edb	1.0907854
166	0x3f1c091b	0.60951394
167	0x3f50f8f1	0.81629854
168	0xbf00be80	-0.5029068
169	0x3f02fe60	0.51169395
170	0xbf102d49	-0.563191
171	0x3ed1fc86	0.41012973
172	0xbf6d73f3	-0.9275505
173	0xbfaaed02	-1.3353579
174	0x3e73487d	0.23758121
175	0xbf8a4f35	-1.0805422
176	0xbf2d474a	-0.67686903
177	0xbf1c6557	-0.6109213
178	0xbec19855	-0.37811533
179	0xbf173b62	-0.59074986
180	0x3f112767	0.5670075
181	0x3f374d99	0.7160278
182	0x3e20b98f	0.15695785
183	0xbf1d736a	-0.6150423
184	0xbf2bec94	-0.67157865
185	0xbf6b282e	-0.91858184
186	0xbf4dd9ff	-0.8041076
187	0x3f036af5	0.5133508
188	0x3f9b5e7b	1.2138208
189	0x3e936828	0.28790402
190	0xbd1774ff	-0.03697681
191	0x3f26e243	0.65189
192	0x3fa00f19	1.2504607
193	0xbf713e72	-0.9423591
194	0x3ee5e54d	0.44901505
195	0xbf86affc	-1.0522456
196	0xbe204564	-0.1565147
197	0xbd2e5b07	-0.04256728
198	0xbf152e65	-0.5827392
199	0xbf99fe2f	-1.2030696
200	0xbf8ff82d	-1.1247612
201	0x3ec060f0	0.37573957
202	0x3f3efee9	0.7460771
203	0x3e8f3346	0.27968806
204	0x3ee2f32a	0.44326144
205	0xbf6f468e	-0.9346703
206	0x3e657b9c	0.22410434
207	0x3eca1f14	0.39476836
208	0xbfa5af1c	-1.2944064
209	0xbfdfb312	-1.7476523
210	0xbe7cc1af	-0.2468326
211	0xbe3759ab	-0.179053
212	0xbe697f77	-0.2280253
213	0x3ecf1551	0.4044595
214	0x3e268af8	0.1626395
215	0x3fa4734c	1.2847686
216	0x3f22d998	0.6361327
217	0x3e73141e	0.23738143
218	0xbee186dc	-0.44048202
219	0x3f815723	1.0104717
220	0xbb9c084e	-0.004761732
221	0xbf8d725d	-1.1050526
222	0xbec12b11	-0.3772817
223	0x3c6e8ade	0.014559476
224	0x3f8532df	1.040615
225	0x3f53c92d	0.82728845
226	0xbf432f32	-0.7624389
227	0xbfa49160	-1.2856865
228	0x3ecffc23	0.40622053
229	0xbcaede85	-0.02134634
230	0x3f41e6f2	0.7574302
231	0xbf41498e	-0.7550286
232	0x3edfc6a3	0.43706235
233	0xbe3b1df5	-0.18273146
234	0xbf28e2c1	-0.65971
235	0x3f8f3ce8	1.1190462
236	0xbbae28b1	-0.0053149094
237	0x3f40e8df	0.75355333
238	0x3f5846e0	0.84483147
239	0xbeabd467	-0.33560488
240	0x3d9bdda6	0.076106355
241	0x3df2f4ab	0.11863073
242	0x3f7c1695	0.9847196
243	0xbeb14327	-0.34621546
244	0xbdefc89b	-0.11708184
245	0xbf084cad	-0.53242
246	0x3cfefced	0.031126464
247	0x3e54f542	0.20796683
248	0xbfe61183	-1.7974094
249	0xbef124a4	-0.47098267
250	0x3f95028b	1.1641401
251	0xbe2176ea	-0.15768018
252	0xbe906bbb	-0.28207192
253	0xbefa114a	-0.48841316
254	0xbf41810b	-0.7558753
255	0x3e83284f	0.2561669

transformer.layers.0.self_attn.in_proj_weight f4 [144, 48]
0	0xbc65126c	-0.013981443
1	0x3e59fac2	0.21287063
2	0x3d6f65bd	0.058446635
3	0x3dd9ab6c	0.10628399
4	0x3d3ac7e0	0.045600772
5	0xbc0b556d	-0.008504254
6	0xbe7a7a93	-0.24460821
7	0x38963cdb	7.1638926e-05
8	0x3f085699	0.5325714
9	0xbe31329a	-0.17304459
10	0x3e2c4c3f	0.1682596
11	0x3c83aeb5	0.016074518
12	0x3da16ff7	0.07882684
13	0x3c55d80a	0.013051996
14	0xbeb303b6	-0.3496377
15	0xbe3e407c	-0.18579286
16	0xbed8120e	-0.42201275
17	0xbe541857	-0.2071241
18	0x3dc5fe73	0.09667673
19	0x3b25c691	0.0025295357
20	0x3e16d4f4	0.14729673
21	0x3e0875c6	0.13326177
22	0xbe0fcef2	-0.14043787
23	0x3e4adeb5	0.19811518
24	0xbe8042aa	-0.2505086
25	0xbda61fd4	-0.081115395
26	0xbdeb27c5	-0.11482195
27	0xbe14dc4e	-0.14537165
28	0x3e18c04a	0.14917102
29	0xbd04718a	-0.03233484
30	0x3e443815	0.19162019
31	0xbe770ab6	-0.2412518
32	0x3c8df3e2	0.017328206
33	0x3df92e89	0.12167079
34	0x3f3e492e	0.74330413
35	0x3e9aa642	0.3020497
36	0xbece20be	-0.40259355
37	0x3e9e70ff	0.30945584
38	0x3dc03b3f	0.093863
39	0x3d201cc0	0.039089918
40	0xbe27ee8a	-0.16399589
41	0xbe5923ab	-0.21205013
42	0xbe6fbb6c	-0.2341134
43	0xbeac8d0e	-0.33701366
44	0xbbbd9964	-0.005786108
45	0x3eb3be84	0.3510629
46	0xbdba9e87	-0.09112268
47	0x3c4e6ffe	0.012599943
48	0x3e38ed06	0.18059167
49	0xbd457224	-0.048204556
50	0x3e92a3c7	0.28640577
51	0xbebf7caa	-0.373998
52	0x3e92023a	0.28517324
53	0x3d2f8130	0.042847812
54	0xbdbec363	-0.09314611
55	0xbe0b2a3b	-0.13590328
56	0xbe3f4649	-0.18679155
57	0xbd873f57	-0.06603878
58	0xbdb8af7e	-0.090178475
59	0x3e45e7ff	0.1932678
60	0xbe20c387	-0.15699588
61	0x3d2ae17c	0.041718945
62	0xbe12a26a	-0.14319769
63	0xbc8a9531	-0.016916843
64	0x3de5c9d5	0.11220137
65	0x3d4fd9ad	0.0507447
66	0x3f00501a	0.50122225
67	0x3e0e04b1	0.13868977
68	0xbe945c36	-0.289766
69	0x3e4d80b8	0.20068634
70	0xbecdbf9d	-0.40185252
71	0xbe65c661	-0.22438957
72	0x3e7eb04c	0.2487194
73	0x3de0c3f6	0.109748766
74	0xbe83c8f6	-0.2573926
75	0xbe43d3a8	-0.19123709
76	0xbc10b38f	-0.008831873
77	0xbe87f1e5	-0.26551738
78	0xbe9c22d5	-0.30495325
79	0x3c6dda58	0.014517389
80	0x3ee953b9	0.45571688
81	0x3ef0b3c3	0.47012147
82	0xbe592d04	-0.21208578
83	0xbecbef9a	-0.3983124
84	0xbdb7fe05	-0.08983997
85	0x3d0744e7	0.033024695
86	0x3eb388e1	0.35065368
87	0x3dea4627	0.11439162
88	0x3d88be08	0.066768706
89	0x3e834e3f	0.25645635
90	0xbe75a678	-0.23989284
91	0x3eb17cd9	0.34665564
92	0xbe084d6f	-0.13310789
93	0x3dbb9e81	0.091610916
94	0xbc4c2fad	-0.012462539
95	0xbe87bb35	-0.26510015
96	0xbf393fc5	-0.7236293
97	0xbee22613	-0.44169673
98	0x3dd78152	0.10522713
99	0xbf1f94b1	-0.6233626
100	0xbe28730d	-0.16450138
101	0x3e65cb51	0.2244084
102	0x3dd4cc26	0.10390501
103	0xbee0683b	-0.43829522
104	0x3dd22d28	0.10262519
105	0xbcaf6639	-0.021411048
106	0x3e4b545d	0.19856401
107	0xbe2ceed7	-0.16887985
108	0xbe739fdd	-0.23791452
109	0x3e5db027	0.21649228
110	0x3e205cdd	0.15660425
111	0xbf0f5d11	-0.56001383
112	0xbd9f7c8f	-0.077874295
113	0x3d9d5d12	0.076837674
114	0xbd6f734d	-0.05845957
115	0x3e705b66	0.23472366
116	0xbde8f80d	-0.11375437
117	0xbe87b7c5	-0.26507393
118	0xbeddb0fa	-0.43299085
119	0xbe4feb9c	-0.20304722
120	0xbcff1a01	-0.03114033
121	0xbd45896b	-0.048226755
122	0x3ec5daba	0.38643438
123	0x3f175266	0.59110105
124	0x3ecca90d	0.39972726
125	0x3eb54018	0.35400462
126	0xbddaf56e	-0.10691343
127	0x3eb3f9b0	0.35151434
128	0x3db5022c	0.08838305
129	0x3e15386c	0.14572304
130	0xbc3000b3	-0.010742354
131	0xbb75747d	-0.0037453466
132	0x3ecef5f6	0.40422028
133	0x3e0bf2a7	0.13666783
134	0x3e146fb6	0.1449574
135	0x3ef8aac7	0.48567793
136	0x3e147188	0.14496434
137	0xbe5095ae	-0.20369598
138	0x3f0f802b	0.56054944
139	0x3dfca4a6	0.12336092
140	0xbe1483b6	-0.14503369
141	0xbe33a98f	-0.1754515
142	0x3e50b45b	0.203813
143	0xbed89505	-0.42301193
144	0x3e627476	0.22114739
145	0x3e801b4a	0.2502082
146	0xbc53bde1	-0.012923689
147	0xbd596963	-0.05307902
148	0xbe9cdce1	-0.30637267
149	0xbe6383a5	-0.22218187
150	0xbeaf8901	-0.34284213
151	0x3e8bca8c	0.27302969
152	0x3d0a6e80	0.033796787
153	0xbbe826ca	-0.007084702
154	0xbe85cbdd	-0.26132098
155	0x3dd29e97	0.10284155
156	0x3e882118	0.2658775
157	0x3e88de1f	0.26731965
158	0x3d8f06dc	0.0698373
159	0xbd0610b6	-0.03273078
160	0xbe46eb85	-0.19425781
161	0x3dd9b866	0.10630874
162	0xbe3ba2c1	-0.18323804
163	0xbe2e0264	-0.169931
164	0x3ce8c3d4	0.02841369
165	0x3e3fb0a0	0.18719721
166	0x3e56bade	0.20969722
167	0x3e313340	0.17304707
168	0xbdd25dcb	-0.10271796
169	0x3dc6ab89	0.097006865
170	0x3d1cdac4	0.03829457
171	0x3e513406	0.20430002
172	0xbe5590f2	-0.20856073
173	0xbd902ecc	-0.07040176
174	0xbea08c4e	-0.31357044
175	0xbd3c3ab0	-0.045954406
176	0x3d54062c	0.0517637
177	0xbd503a44	-0.050836816
178	0xbe5f782a	-0.21823183
179	0x3e8d269a	0.27568513
180	0xbe79c97e	-0.2439327
181	0xbe437b6a	-0.19090047
182	0xbe43a368	-0.19105303
183	0x3cb386d6	0.02191488
184	0x3e17939d	0.14802404
185	0x3e2308ca	0.15921322
186	0xbe7880f5	-0.24267943
187	0x3e939636	0.2882554
188	0xbe8193d6	-0.25308102
189	0x3e2164d8	0.15761125
190	0xbe2637ef	-0.16232274
191	0x3e07d45b	0.13264601
192	0x3ecc7392	0.39931923
193	0x3de0b478	0.10971922
194	0xbd81fedd	-0.063474394
195	0xbb8441ae	-0.00403615
196	0xbe7f9ade	-0.24961421
197	0xbe23a31a	-0.15980187
198	0xbe88555f	-0.26627633
199	0x3e261135	0.16217501
200	0x3e84da3d	0.25947753
201	0x39389ef0	0.00017606816
202	0xbe51c420	-0.20484972
203	0x3ec0c49c	0.3765
204	0x3b57051d	0.0032809444
205	0xbdacb5cc	-0.084331125
206	0xbd2847f4	-0.041084245
207	0xbebe2245	-0.3713552
208	0xbd351cca	-0.04421691
209	0x3e98fb46	0.29879206
210	0xbc59fe46	-0.013305252
211	0xbca5e53e	-0.020250913
212	0xbd45857d	-0.048223007
213	0x3de1a857	0.110184364
214	0xbd121a96	-0.035669886
215	0xbe296108	-0.1654092
216	0xbe01d435	-0.12678607
217	0x3cbc40ca	0.022980113
218	0x3e22e138	0.15906227
219	0x3e9c87ff	0.30572507
220	0xbd0d9a9e	-0.034571283
221	0x3e0e9488	0.13923848
222	0x3d270bc4	0.040782705
223	0x3e932851	0.28741696
224	0xbeb2737c	-0.34853733
225	0xbe46a9eb	-0.19400756
226	0x3eebec99	0.46078947
227	0xbe5b8a90	-0.21439576
228	0xbd66c2cc	-0.056338117
229	0xbe51ccc2	-0.20488265
230	0xbe068bdb	-0.13139288
231	0xbe8c4f19	-0.27404097
232	0xbd8075b1	-0.06272448
233	0x3e0621e9	0.13098873
234	0x3ed6367c	0.41838443
235	0x3e95f9d3	0.29292163
236	0xbdbc6187	-0.09198289
237	0xbcc8da77	-0.024518235
238	0xbd35917b	-0.044328194
239	0xbed620fc	-0.4182204
240	0xbe27cdce	-0.16387102
241	0xbc6436ad	-0.013929051
242	0x3d422723	0.047400605
243	0xbe178e69	-0.14800419
244	0xbd1097b2	-0.035300918
245	0xbd442ad6	-0.047892414
246	0x3de0ae92	0.10970797
247	0x3de3c584	0.111216575
248	0xbe9f59ca	-0.3112319
249	0x3e879e7b	0.26488099
250	0xbe15adda	-0.146171
251	0xbd3cb58c	-0.046071574
252	0x3e0802f0	0.1328237
253	0xbd8e2c29	-0.06942017
254	0x3edaef8c	0.42760885
255	0x3dcb2dc6	0.0992084

transformer.layers.0.self_attn.in_proj_bias f4 [144]
0	0xbe571ec1	-0.21007825
1	0x3de42e1e	0.11141609
2	0x3f432841	0.762333
3	0xbdd6e6ad	-0.10493217
4	0x3ca96178	0.02067636
5	0xbda0960f	-0.078411214
6	0xbea1c049	-0.31592014
7	0xbe6af0da	-0.2294344
8	0xbf1ea391	-0.6196833
9	0xbe33d67e	-0.17562291
10	0xbe389274	-0.18024617
11	0xbf0c3b9f	-0.54778475
12	0x3ee153ce	0.4400925
13	0x3d876422	0.06610896
14	0xbdb74c44	-0.089500934
15	0xbd97067f	-0.07374286
16	0x3ea3c2f7	0.31984684
17	0xbccd1b40	-0.025037408
18	0xbe8c9934	-0.27460635
19	0xbe4b29a1	-0.19840099
20	0xbe5c1501	-0.21492387
21	0xbedf4d5d	-0.4361371
22	0xbe298600	-0.16555023
23	0xbf8f2d8c	-1.1185775
24	0x3e10026b	0.14063422
25	0xbf4d4d62	-0.801962
26	0xbd0ed583	-0.03487159
27	0xbedbda48	-0.42939973
28	0xbea4034d	-0.32033768
29	0x3e4effe1	0.20214798
30	0xbf15a3a4	-0.5845282
31	0xbbbe41f9	-0.0058062044
32	0x3dc56d0b	0.09639939
33	0x3e469366	0.19392166
34	0x3deee976	0.11665623
35	0xbe872909	-0.26398495
36	0xbe170ac6	-0.14750203
37	0x3cd08600	0.025454521
38	0xbe17fcea	-0.14842573
39	0x3e8e1620	0.27751255
40	0x3eea99a0	0.45820332
41	0xbe116ed4	-0.14202434
42	0xbf0e1b68	-0.5551057
43	0xbe7ecf14	-0.24883682
44	0x3ef778e1	0.4833441
45	0x3f1c1611	0.6097117
46	0x3ecc79b6	0.39936608
47	0xbf2daf74	-0.67845845
48	0x3b200644	0.0024417797
49	0xbac3f22b	-0.0014949491
50	0xbb2a69ae	-0.0026002931
51	0xba8cb183	-0.0010734055
52	0xb8e3c946	-0.000108616936
53	0xb9eddbd4	-0.00045367947
54	0xba559803	-0.00081479567
55	0x3af94103	0.0019016567
56	0xb9825f7e	-0.0002486668
57	0x3a6130bc	0.0008590331
58	0x3a92faeb	0.0011213695
59	0xb9a1269a	-0.00030737073
60	0xbafaaa60	-0.0019124262
61	0xb990a191	-0.00027586197
62	0x3a0b2945	0.0005308579
63	0xbb352df1	-0.0027645791
64	0xbb558f0c	-0.0032586483
65	0xba0e2525	-0.0005422405
66	0x3ab0fe21	0.0013503471
67	0x39a6ca02	0.00031812495
68	0x3b1cebfe	0.0023944373
69	0x3b029d2e	0.0019930112
70	0x3a93f821	0.0011289158
71	0x3b84179e	0.0040311357
72	0xbb1309f7	-0.002243636
73	0x3baf6c36	0.005353476
74	0xba3a3e16	-0.00071045884
75	0x39f36912	0.00046426855
76	0x3b304c89	0.0026901087
77	0xba7b917e	-0.000959657
78	0x3b34702a	0.0027532675
79	0x3b1d48c3	0.0023999668
80	0xbab26d4c	-0.0013612895
81	0x3a1f6319	0.00060801354
82	0x3b30f5ba	0.0027001933
83	0x3b8f0389	0.004364435
84	0xba9cc055	-0.0011959175
85	0x3b38bdcc	0.00281893
86	0xba482c07	-0.0007635955
87	0x39131f7d	0.00014030743
88	0xbaa3b80f	-0.0012490767
89	0x3a93ecd6	0.0011285793
90	0x3ac26313	0.0014830552
91	0x3b42f499	0.0029747842
92	0x3ae0d1e4	0.0017152396
93	0x3b26a226	0.0025426238
94	0xba8ebd1f	-0.0010890103
95	0xb912ae55	-0.00013988589
96	0x3d9e7640	0.07737398
97	0x3d800b07	0.06252103
98	0x3d8f8104	0.0700703
99	0xbd479a95	-0.048731405
100	0xbdc9eec4	-0.09859994
101	0xbb85dd1d	-0.0040851966
102	0x3d2f9b53	0.042872738
103	0xbbcf7b1c	-0.0063318145
104	0x3dd69049	0.10476739
105	0xbbbdcc58	-0.005792182
106	0xbc927085	-0.01787592
107	0x3d02eaec	0.03196232
108	0x3d4aeb5d	0.049540866
109	0x3d02c2a2	0.031923898
110	0x3db927b7	0.09040778
111	0xbe041aa6	-0.1290079
112	0xbd1f1a2b	-0.038843315
113	0xbdba6422	-0.0910113
114	0xbc87fb6c	-0.01659938
115	0xbb84ae43	-0.004049094
116	0xbcae545d	-0.021280462
117	0x3da97ce8	0.08275777
118	0x3d91a536	0.071115896
119	0xbcb6ba74	-0.022305705
120	0x3db71181	0.089388855
121	0x3ce83c41	0.028349044
122	0xbd6efe83	-0.05834819
123	0x3c6bc8fc	0.01439118
124	0xbca470ee	-0.02007338
125	0xbcce9aee	-0.02522036
126	0x3d7ae69b	0.06125508
127	0x3cb8ce74	0.022559382
128	0xbd5962c2	-0.0530727
129	0xbd18c84d	-0.037300397
130	0xbdd02800	-0.101638794
131	0x3d0ae221	0.03390706
132	0x3d0e89fd	0.034799565
133	0xbcee5f89	-0.02909829
134	0xbc802d10	-0.015646487
135	0x3dce43e3	0.10071542
136	0x3da73cd6	0.081659004
137	0x3cb6ca3c	0.02231323
138	0x3d970459	0.07373876
139	0x3d472f29	0.04862896
140	0x3dbe7f29	0.093015976
141	0xbd485ef3	-0.048918676
142	0xbdb04f53	-0.0860888
143	0x3d7eb7a5	0.062186856

transformer.layers.0.self_attn.out_proj.weight f4 [48, 48]
0	0x3d9c0882	0.0761881
1	0x3d2bcf1a	0.041945554
2	0x3e08e03f	0.13366793
3	0x3cb071ef	0.021538703
4	0x3d402967	0.046914484
5	0xbde341b0	-0.11096513
6	0xbc857746	-0.016292226
7	0x3d18fdbf	0.037351366
8	0xbcdb6cc0	-0.026785254
9	0xbacd6154	-0.0015669265
10	0x3e1a2e74	0.15056783
11	0x3d640454	0.05566819
12	0xbd9c5a48	-0.07634407
13	0x3bb09c3e	0.0053897193
14	0xbd4de24b	-0.050264638
15	0xbd68a61f	-0.05679905
16	0x3db6cee2	0.089261785
17	0xbe120617	-0.14260136
18	0x3dca7e2d	0.09887347
19	0x3de37aef	0.11107432
20	0x3bd7be0a	0.0065839337
21	0xbd699788	-0.057029277
22	0xbd8087f4	-0.06275931
23	0x3dd94119	0.106081195
24	0x3e165300	0.146801
25	0x3d79ca3e	0.06098389
26	0xbd3e9ba5	-0.046535153
27	0xbd661825	-0.05617537
28	0xbdd65ac5	-0.10466532
29	0x3d13678b	0.03598742
30	0x3dcdf8d2	0.10057224
31	0xbc893e28	-0.016753271
32	0x3c9ef9fe	0.019406315
33	0xbd8d25fa	-0.06892009
34	0xbe5c38b0	-0.21506
35	0xbe1ff1a5	-0.15619524
36	0x3e0e2b64	0.1388374
37	0x3d5a76f8	0.053336114
38	0xbd9ba281	-0.075993545
39	0xbce71a4d	-0.028210783
40	0x3d5a61cd	0.053315926
41	0xbc6f73fc	-0.014615055
42	0xbcf38560	-0.029726684
43	0x3df73ae2	0.12071778
44	0x3d70b24a	0.05876378
45	0x3d1fe1a1	0.039033536
46	0x3c12b8b3	0.008955169
47	0xbd52c12e	-0.05145376
48	0x3dd4a6fb	0.103834115
49	0xbbdf450c	-0.006813651
50	0x3c726ed5	0.014796932
51	0xbce8ddb8	-0.028426036
52	0x3cc9e84c	0.0246469
53	0x3da8a633	0.08234825
54	0xbd26a6ca	-0.040686406
55	0xbd888fd0	-0.06668055
56	0x3dc375ee	0.09543978
57	0xbd058abc	-0.03260301
58	0x3d2bf114	0.041977957
59	0x3c3c8643	0.01150662
60	0xbd903439	-0.07041211
61	0xbd9ba9a8	-0.07600719
62	0x3dd5ad06	0.10433392
63	0x3cbc9c33	0.0230237
64	0xbe019b01	-0.12656786
65	0x3cac95dd	0.021067554
66	0xbc3c9784	-0.0115107335
67	0xbd32bd17	-0.04363736
68	0xbc78be78	-0.01518213
69	0xbd76ce57	-0.060255375
70	0x3dd22877	0.10261624
71	0xbbe1bd6b	-0.0068890355
72	0x3dfa5cea	0.12224753
73	0x3d644707	0.0557318
74	0x3d8ee73e	0.069777
75	0xbcea3363	-0.028588956
76	0xbd5f3ed0	-0.054503262
77	0x3ba29ca2	0.0049625197
78	0x3e1d800f	0.15380882
79	0x3a00c383	0.0004911946
80	0xbd1a5e12	-0.03768737
81	0xbd819034	-0.06326333
82	0x3c0dcaeb	0.008654336
83	0xbd15417a	-0.036439396
84	0x3d9d9657	0.07694691
85	0x3ce04aaa	0.027379353
86	0x3de78e97	0.11306494
87	0x3dae2fb5	0.08505193
88	0xbb38485f	-0.0028119308
89	0xbdc22e26	-0.09481458
90	0xbd9c4e3f	-0.07632112
91	0xbd7041c0	-0.058656454
92	0x3d2dd70f	0.042441424
93	0x3d8a42ce	0.06751023
94	0xbcf5c30e	-0.030000236
95	0xbd5d90ff	-0.054093357
96	0x3d39c44e	0.045353226
97	0x3d8c003e	0.06835984
98	0x3d7b2168	0.061311156
99	0xbd9251fd	-0.07144544
100	0xbe3ac8a6	-0.18240604
101	0x3d053e10	0.03252989
102	0xbce4618b	-0.027878543
103	0xbcc264e1	-0.023729743
104	0x3d803625	0.06260327
105	0x3e03cb11	0.12870432
106	0x3d28347c	0.041065678
107	0xbdc1b4ab	-0.09458288
108	0x3d615913	0.05501659
109	0xbb2fd5bc	-0.0026830276
110	0x3c7466bb	0.014917071
111	0x3d0e31c9	0.034715448
112	0xbc86e6f6	-0.016467553
113	0x3d6d4939	0.05793116
114	0x3d78f760	0.06078279
115	0x3e80db34	0.2516724
116	0xbd8c1bf5	-0.0684127
117	0x3d8afbf3	0.06786337
118	0xbc9bb141	-0.01900542
119	0xbb40ad68	-0.0029400233
120	0xbdc9cdef	-0.09853732
121	0x3d8e6713	0.069532536
122	0xbb51ebe4	-0.003203147
123	0x3cc16d2b	0.023611626
124	0x3e01ece0	0.12688017
125	0xbdc0e3db	-0.0941846
126	0x3c9f0687	0.019412292
127	0xbcd0b3ba	-0.025476325
128	0xbd86e90c	-0.06587419
129	0x3d59ef47	0.05320671
130	0x3b8d2fbc	0.004308669
131	0x3da82119	0.08209438
132	0xbd616d23	-0.05503572
133	0x3d68f67a	0.056875683
134	0xbd43a5b7	-0.04776546
135	0x3e16c125	0.14722116
136	0xbc83dcb6	-0.016096454
137	0x3ca5f975	0.020260552
138	0x3bb0cd9f	0.0053956057
139	0x3dc0fab9	0.094228216
140	0x3e00b1fb	0.12567894
141	0xbc003630	-0.007825419
142	0xbc21e155	-0.0098803835
143	0x3ca84a0a	0.020543117
144	0xbcf77db6	-0.03021131
145	0x3d975d3b	0.07390829
146	0x3dc48ea2	0.095975175
147	0x3cc1d520	0.023661196
148	0xbbaf2dfb	-0.0053460575
149	0xbdb84701	-0.08997918
150	0xbd146685	-0.036230583
151	0x3ced7c63	0.028989976
152	0xbca4d84a	-0.020122666
153	0xbc4887c3	-0.012239399
154	0x3dbce330	0.0922302
155	0x3d6404ed	0.05566876
156	0xbcc723ec	-0.024309121
157	0x3b90da88	0.004420582
158	0xbde71b9e	-0.112845644
159	0xbd369fff	-0.044586178
160	0xbc6a0c0a	-0.014285097
161	0xbd2be202	-0.041963585
162	0x3d4089d5	0.047006447
163	0x3d122954	0.035683945
164	0xbd0b77cd	-0.034049798
165	0x3cdfb8b6	0.027309757
166	0xbd24185f	-0.040062305
167	0xba525cf0	-0.0008024713
168	0x3ddd0553	0.10792031
169	0x3d9c765a	0.07639761
170	0xbcaa370f	-0.020778207
171	0xbd117db8	-0.035520285
172	0x3bc1f2bc	0.005918829
173	0x3cc4f8b3	0.02404437
174	0xbc2f5834	-0.010702182
175	0x3dbdef2f	0.09274136
176	0x3c9b0ef1	0.018928023
177	0x3e195728	0.14974654
178	0x3c8068bf	0.015674947
179	0xbc7ff532	-0.015622424
180	0xbd664ac5	-0.05622365
181	0x3d628c06	0.055309318
182	0xba92ce3e	-0.0011200381
183	0xbca47914	-0.020077266
184	0xbdad17c5	-0.08451799
185	0xbc3ffd3f	-0.011718093
186	0x3da91c6d	0.08257375
187	0x3d7e2b1e	0.06205284
188	0xbb3ea0d1	-0.0029087553
189	0x3d9daeaa	0.0769933
190	0x3d53546c	0.051594183
191	0xbdadc0de	-0.08484052
192	0xbcc75cd6	-0.02433626
193	0x3cb5664c	0.022143506
194	0x3d353a8f	0.0442453
195	0x3d8a0e66	0.067410275
196	0x3cedab98	0.029012486
197	0xbdb5f84b	-0.08885249
198	0x3db774cb	0.08957823
199	0xbd8f3a5d	-0.06993554
200	0x3e16607f	0.14685248
201	0xbd82450d	-0.06360827
202	0xbd38bed5	-0.045103867
203	0xbdb7cf20	-0.08975053
204	0x3cd4cb31	0.025975795
205	0x3d8ec207	0.069706015
206	0x3e198029	0.14990295
207	0x3b9cc8be	0.0047846725
208	0xbd42ae11	-0.047529284
209	0xbda68aea	-0.081319645
210	0x3b530f42	0.003220514
211	0xbddede54	-0.108822495
212	0xbd959f89	-0.073058195
213	0x3e017780	0.12643242
214	0xbdff8abd	-0.12477634
215	0x3e3fa279	0.18714322
216	0xbd6c8ebb	-0.057753306
217	0x3dff8fb4	0.12478581
218	0xbd38a0a8	-0.04507509
219	0x3b9349ed	0.0044948966
220	0x3ccce954	0.025013603
221	0x3c13a605	0.00901175
222	0xbdfb7d10	-0.12279713
223	0x3c95e3d9	0.018297123
224	0x3e2b57af	0.16732667
225	0x3cd426f7	0.025897486
226	0x3d2b06a7	0.04175439
227	0x3dadaaf6	0.08479874
228	0xbcda2e98	-0.026633546
229	0xbdef1ad1	-0.11675037
230	0xbdaf395d	-0.08555863
231	0x3cbcd23b	0.023049464
232	0x3d9b6c65	0.07589034
233	0x3dd54cf3	0.104150675
234	0x3ca5705f	0.020195184
235	0x3e0a3a24	0.13498741
236	0x3c0d651e	0.008630065
237	0x3da355b7	0.07975333
238	0xbce2976c	-0.027660094
239	0x3d347df2	0.044065423
240	0x3caa4af8	0.020787701
241	0xbd0fce83	-0.035109054
242	0x3daa6631	0.08320273
243	0xbcdd763c	-0.027033918
244	0x3dc23710	0.094831586
245	0xbcc76c05	-0.0243435
246	0xbd9111fe	-0.0708351
247	0x3d7332c3	0.059374582
248	0xbd10b0af	-0.03532475
249	0xbe55bac4	-0.20872027
250	0xbd506590	-0.050878108
251	0xbc24b4a8	-0.010052837
252	0x3c7fe0fe	0.015617607
253	0xbccb9a34	-0.024853803
254	0x3c46dedd	0.012138096
255	0xbc584d34	-0.013202

transformer.layers.0.self_attn.out_proj.bias f4 [48]
0	0x3c65d80a	0.0140285585
1	0xbbca13bb	-0.006166903
2	0xbd1a6765	-0.03769626
3	0xbd41da68	-0.04732743
4	0x3c9133d6	0.017724913
5	0xbd11340f	-0.035450038
6	0x3d7ddfd7	0.06198105
7	0x3c9def2a	0.019279081
8	0x3c55517a	0.013019914
9	0x3ce23c4d	0.027616644
10	0xbc16f46c	-0.009213548
11	0x3981ac4c	0.00024733169
12	0x3ccdcbac	0.025121532
13	0x3cfce9ef	0.030873267
14	0xbd0982c0	-0.03357196
15	0xbca3b50a	-0.019983787
16	0x3d2a5021	0.041580323
17	0x3c30e3a1	0.010796458
18	0xbd5773aa	-0.05260054
19	0x3cbab580	0.022791624
20	0xbd3871e0	-0.045030475
21	0xbbfc1558	-0.007692974
22	0x3c9ed8c1	0.019390466
23	0x3cabb7a8	0.020961598
24	0xbcfdd363	-0.030984586
25	0xbcb50d75	-0.022101143
26	0x3d4a272a	0.049353756
27	0xbceb6336	-0.02873383
28	0xbd12273d	-0.03568195
29	0x3bcf0b83	0.006318511
30	0xbd017057	-0.031601276
31	0x3d345fb3	0.04403658
32	0x3d1435c7	0.0361841
33	0x3cd57d8d	0.026060844
34	0xbd4fd210	-0.05073744
35	0xbd315487	-0.043293502
36	0x3d8789a5	0.066180505
37	0xbd546dc2	-0.051862486
38	0x3d92fb1a	0.071768
39	0x3cb5bba5	0.022184202
40	0xbd1d8217	-0.03845414
41	0xbcc5d6f7	-0.024150355
42	0x3c92c534	0.0179163
43	0xbd2e7ab5	-0.04259749
44	0x3cf64cd0	0.030065924
45	0xbc968d20	-0.01837784
46	0xbc32b769	-0.010907986
47	0x3c0aa634	0.0084624775

transformer.layers.0.linear1.weight f4 [192, 48]
0	0xbe2bb008	-0.1676637
1	0x3d40a216	0.047029577
2	0xbd9ac07a	-0.07556243
3	0x3c884d60	0.016638458
4	0xbde67cdf	-0.11254286
5	0x3e3ac13d	0.18237777
6	0x3cb36814	0.021900214
7	0x3cd4a098	0.025955483
8	0x3e30265d	0.17202134
9	0x3d9fa9d3	0.07796063
10	0x3d6e1af9	0.058131192
11	0xbd3594a4	-0.044331208
12	0x3c9f8e2f	0.019476978
13	0xbced9be1	-0.029004993
14	0x3dc1778b	0.09446629
15	0x3d791163	0.060807597
16	0xbd184506	-0.0371752
17	0xbcc10923	-0.023563927
18	0x3e0bed9d	0.13664861
19	0xbe0ce967	-0.13760911
20	0xbe19b39e	-0.15009925
21	0xbdf85f60	-0.12127566
22	0x3e1f2240	0.15540409
23	0x3d3fac5d	0.046795238
24	0x3d96b747	0.07359176
25	0x3d22d2f4	0.03975196
26	0x3de0e6d2	0.109815255
27	0x3d71b463	0.05900992
28	0xbe3e9412	-0.18611172
29	0xbcf91b67	-0.030408574
30	0x3d4c88a4	0.049935
31	0xbca58ed0	-0.0202097
32	0xbcd9daaa	-0.026593525
33	0x3de1e6ec	0.11030373
34	0x3d27c5ba	0.04096005
35	0x3e9d00b4	0.306646
36	0xbc091fca	-0.0083693955
37	0xbd922bbc	-0.07137248
38	0x3e090f8b	0.13384835
39	0xbdeb0a61	-0.11476589
40	0x3c7104ef	0.014710649
41	0xbd9b33ed	-0.075782634
42	0xbd8bd3e4	-0.06827524
43	0x3d888817	0.06666582
44	0xbd6da3ce	-0.058017544
45	0xbcadc164	-0.02121038
46	0x3dfd394c	0.12364444
47	0x3c04743e	0.008084355
48	0xbd419738	-0.047263354
49	0xbdded328	-0.108801186
50	0x3c7a85ab	0.015290658
51	0xbd958d17	-0.073023014
52	0x3df5ec65	0.12007979
53	0x3da25aa3	0.07927444
54	0xbe3a5d11	-0.18199565
55	0x3dc61b5e	0.096731886
56	0x3e03844e	0.12843439
57	0xbe1f72ee	-0.15571186
58	0xbd7657b6	-0.06014224
59	0x3d03a12f	0.03213614
60	0xbde51eea	-0.11187537
61	0x3d799511	0.060933176
62	0xbda346ed	-0.079725124
63	0xbe405efc	-0.18786234
64	0xbd48dd4f	-0.04903918
65	0xbcf7ef02	-0.030265335
66	0x3dcbd60d	0.09952936
67	0x3d8e6343	0.069525264
68	0x3dc577ce	0.096419916
69	0xbd8dfc4e	-0.06932889
70	0x3e2f3568	0.17110217
71	0x3e650ce1	0.22368194
72	0xbd92bc88	-0.07164866
73	0x3d4f7c3d	0.050655592
74	0xbd953bc5	-0.07286791
75	0x3d8e1357	0.069372825
76	0xbc907729	-0.017634945
77	0x3c050733	0.008119392
78	0xbd9ba5c3	-0.07599976
79	0xbcf43081	-0.029808285
80	0xbdd960ea	-0.10614188
81	0x3e123382	0.14277461
82	0x3d5de828	0.05417648
83	0x3d80ee5d	0.06295464
84	0x3c375d10	0.011191621
85	0xbd20af70	-0.03922981
86	0x3df91243	0.12161686
87	0xbd408aba	-0.0470073
88	0xbda8b0ec	-0.0823687
89	0x3e21a350	0.15784955
90	0x3d6cf7d4	0.057853535
91	0x3d1687f7	0.03675076
92	0x3d61652e	0.055028133
93	0x3da2e61e	0.079540476
94	0xbc7f586f	-0.015585049
95	0x3b81f8d9	0.0039664325
96	0x3da628fd	0.08113287
97	0x3e091e3a	0.13390437
98	0x3b231995	0.0024887074
99	0x3d82b039	0.06381268
100	0xbd853d60	-0.06505847
101	0x3d339924	0.04384722
102	0x3df2fee8	0.11865026
103	0xbd79181a	-0.060814
104	0x3c6232b9	0.013806039
105	0xbd0c56c5	-0.034262437
106	0x3e2bd17e	0.16779134
107	0xbd942e2a	-0.072353676
108	0x3de0ad2a	0.109705284
109	0x3d7a0246	0.061037324
110	0xbe14cddc	-0.14531654
111	0xbd0b6fc2	-0.034042127
112	0x3d29e2bb	0.041475993
113	0xbddbdce9	-0.10735495
114	0x3d04e1a4	0.03244175
115	0xbc0d3776	-0.00861918
116	0xbd78b7c2	-0.06072212
117	0x3d77b72b	0.060477417
118	0x3d9b6298	0.07587165
119	0x3d8c2dd9	0.06844682
120	0xbd0a96e4	-0.033835307
121	0x3cad3654	0.02114407
122	0x3d3d92d6	0.04628261
123	0x3bf96526	0.007610935
124	0x3d875b78	0.06609243
125	0xbe46aee0	-0.19402647
126	0x3dca6c99	0.098839946
127	0xbd8e890c	-0.06959733
128	0x3d7e6ccf	0.062115487
129	0x3d28bd31	0.041196052
130	0xbe3e4c58	-0.1858381
131	0x3dd5d693	0.104413174
132	0xbdc638eb	-0.09678825
133	0x3e0599a4	0.1304689
134	0x3d99d041	0.075104244
135	0x3c0a3033	0.008434343
136	0x3dd9b8d3	0.106309555
137	0x3e06be31	0.1315849
138	0x3dae82fe	0.085210785
139	0x3d1fb249	0.038988385
140	0xbdc458ad	-0.09587226
141	0xbd6304dd	-0.05542456
142	0xbd045296	-0.032305323
143	0x3d48192e	0.04885214
144	0xbae46f77	-0.0017428239
145	0x3dfecb8f	0.124411695
146	0x3c12ce5f	0.0089603355
147	0xbc944d03	-0.018103128
148	0xbd8a4fc7	-0.067534976
149	0xbdeed506	-0.11661725
150	0x3d486e87	0.048933532
151	0x3dd94af6	0.10610001
152	0xbc8bfbb0	-0.017087787
153	0x3d505722	0.050864346
154	0xbdb4549e	-0.08805202
155	0x3cdc0bf9	0.026861178
156	0xbbaeaed1	-0.0053308983
157	0x3ccaebe8	0.024770692
158	0xbe187bc9	-0.1489097
159	0xbc4aff8c	-0.012390029
160	0x3d01c7f4	0.03168483
161	0x3c48161d	0.0122123035
162	0xbe7351dc	-0.23761696
163	0x3deb1129	0.114778824
164	0x3d2132cb	0.03935508
165	0xbcdcadc5	-0.026938329
166	0x3cbb8f76	0.022895556
167	0xbdc226b6	-0.0948004
168	0x3e57c03b	0.21069424
169	0xbadf1b86	-0.0017021752
170	0xbd84e320	-0.06488633
171	0x3e5044d2	0.20338753
172	0x3e175aaa	0.1478068
173	0x3e0f78ac	0.14010876
174	0x3e768139	0.24072732
175	0xbe87f5f4	-0.26554835
176	0xbc08e236	-0.008354714
177	0xbc7b8683	-0.015351894
178	0xbd853bc6	-0.065055415
179	0x3d98d813	0.07463088
180	0xbd7a3e72	-0.06109471
181	0x3d060a14	0.032724455
182	0xbc4925f6	-0.012277117
183	0x3d2de210	0.042451918
184	0x3d81e43c	0.063423604
185	0xbd8f7f3b	-0.07006689
186	0xbe5e0222	-0.21680501
187	0xbdddc2d8	-0.10828179
188	0x3d5d8bc0	0.054088354
189	0x3d83922e	0.06424366
190	0x3e167e1a	0.14696541
191	0x3e0b32dc	0.1359362
192	0xbdaa26be	-0.08308171
193	0x3d9e2fdf	0.077239744
194	0xbc2f9acd	-0.01071806
195	0xbc2d3699	-0.010572099
196	0x3dd080b1	0.10180796
197	0x3d3e5ee7	0.046477225
198	0xbdfed548	-0.12443024
199	0x3e019892	0.12655857
200	0xbd952688	-0.0728274
201	0x3d4f3ecf	0.05059701
202	0x3dc93a71	0.098256
203	0x3ccee715	0.025256673
204	0x3d095c50	0.0335353
205	0xbe27e6c0	-0.16396618
206	0x3d23028e	0.03979736
207	0x3d34607f	0.04403734
208	0x3d187cc6	0.03722837
209	0xbcccd863	-0.025005525
210	0xbd35daad	-0.044398
211	0x3cbaa01c	0.022781424
212	0xbe545511	-0.20735575
213	0x3da09455	0.07840792
214	0xbd22421f	-0.03961384
215	0xba925130	-0.0011163112
216	0xbcf70073	-0.030151581
217	0xbd50845b	-0.050907474
218	0x3e0a687b	0.13516419
219	0xbd3bd7ae	-0.045859985
220	0x3d003938	0.031304568
221	0xbc625f35	-0.013816644
222	0xbd1aec14	-0.037822798
223	0x3d12235f	0.035678264
224	0x3c4800c8	0.0122072175
225	0x3cf2e264	0.029648967
226	0xbd0eccb1	-0.034863178
227	0x3e2812a3	0.1641336
228	0xbcd9df7c	-0.026595823
229	0xbd530208	-0.05151561
230	0x3b5456bd	0.0032400333
231	0xbd6174b9	-0.055042956
232	0xbcccdea3	-0.025008505
233	0x3cda3c5e	0.026640113
234	0xbe7978e7	-0.24362527
235	0xbdc35f5b	-0.09539672
236	0x3de880fc	0.11352727
237	0xbdc0488b	-0.093888365
238	0xbdabdee2	-0.08392121
239	0x3d8cbc94	0.06871906
240	0x3baf8499	0.005356383
241	0x3d17fc2f	0.037105735
242	0xbe238c17	-0.15971409
243	0x3cc8fbd7	0.02453415
244	0x3d22d5d4	0.039754704
245	0xbcd6be30	-0.026213735
246	0xbdd7c2f2	-0.1053523
247	0x3de1be76	0.11022656
248	0xbcafe010	-0.021469146
249	0x3cc2f4f9	0.023798453
250	0x3dd1bae2	0.10240723
251	0x3d144889	0.036201987
252	0x3d22ba21	0.039728288
253	0xbe4f2e8a	-0.20232597
254	0x3d23821b	0.039919
255	0x3e2f2a3d	0.17105956

transformer.layers.0.linear1.bias f4 [192]
0	0xbe5705b2	-0.20998266
1	0xbe820933	-0.25397643
2	0xbdc7daf6	-0.0975856
3	0xbe1a1295	-0.15046151
4	0xbe50daae	-0.2039592
5	0xbe784e21	-0.24248554
6	0xbe47595e	-0.19467685
7	0xbe8ab62a	-0.27092105
8	0xbe6f6bde	-0.23380992
9	0xbe352281	-0.17688943
10	0xbe25ea58	-0.16202676
11	0xbe017b3a	-0.12644663
12	0xbe005a00	-0.12534332
13	0xbe9c1346	-0.30483454
14	0xbdbcfb2a	-0.09227593
15	0xbe3d2dae	-0.18474457
16	0xbe002c00	-0.12516785
17	0xbdbc6ead	-0.09200797
18	0xbe2357c8	-0.15951455
19	0xbe888c14	-0.2666937
20	0xbd71992f	-0.058983978
21	0xbe2fd8be	-0.17172524
22	0xbe8cb94b	-0.27485117
23	0xbe61da25	-0.22055872
24	0xbe85e64d	-0.26152268
25	0xbe5397cc	-0.20663375
26	0xbe4e3ac3	-0.20139603
27	0xbd8f834f	-0.07007467
28	0xbcefb57d	-0.029261345
29	0xbe66f2a9	-0.22553505
30	0xbe3bada0	-0.18327951
31	0xbdb8cc95	-0.09023396
32	0xbdcbc2f7	-0.09949296
33	0xbe2b0b9c	-0.16703647
34	0xbdf079db	-0.11741992
35	0xbe7a8cee	-0.24467823
36	0xbdd03096	-0.10165517
37	0x3c3935a7	0.011304296
38	0xbe616ed5	-0.22014935
39	0xbeaed8d6	-0.34149808
40	0xbe3b0558	-0.18263757
41	0xbe230d4f	-0.15923046
42	0xbe2b5883	-0.16732983
43	0xbd9bee61	-0.076138265
44	0xbe759e74	-0.23986226
45	0xbe07ed03	-0.13274007
46	0xbe415011	-0.18878199
47	0xbe25db9e	-0.16197059
48	0xbe256b58	-0.1615423
49	0xbe84830e	-0.25881237
50	0xbeb1b95f	-0.3471174
51	0xbe374c93	-0.17900304
52	0xbe3dd2b3	-0.18537407
53	0xbe4504ae	-0.19240066
54	0xbe038687	-0.12844287
55	0xbddd2cf9	-0.107995935
56	0xbe3bdc58	-0.18345773
57	0xbe77f170	-0.24213195
58	0xbe13720c	-0.14398974
59	0xbececb31	-0.40389398
60	0xbd35b0fb	-0.044358235
61	0xbe4b213c	-0.19836897
62	0xbe64f68f	-0.2235968
63	0xbe349e1f	-0.17638443
64	0xbe4000e3	-0.18750338
65	0xbd27942b	-0.04091279
66	0xbd9197d6	-0.071090385
67	0xbddac7ca	-0.10682638
68	0xbdb56471	-0.08857048
69	0xbdeb6d2f	-0.114954345
70	0xbe732746	-0.2374545
71	0xbe7c2538	-0.24623573
72	0xbdd7b516	-0.10532586
73	0xbe3d8054	-0.18505985
74	0xbe8afc67	-0.27145693
75	0xbdd4e639	-0.10395474
76	0xbdd0d34d	-0.101965524
77	0xbe2c03d0	-0.1679833
78	0xbe633ec1	-0.22191907
79	0xbe983eed	-0.2973551
80	0xbea30a77	-0.31843922
81	0xbe4bd884	-0.19906813
82	0xbea73905	-0.3266069
83	0xbe822c1c	-0.25424278
84	0xbe1f6516	-0.15565905
85	0xbdd6a766	-0.104811475
86	0xbe03500f	-0.12823509
87	0xbdf634a1	-0.12021757
88	0xbdff7174	-0.12472811
89	0x3d802bd8	0.062583625
90	0xbe54abc2	-0.20768645
91	0xbe3275e8	-0.1742779
92	0xbbfe705d	-0.0077648596
93	0xbe25b4ea	-0.16182294
94	0xbe8eb5f6	-0.278732
95	0xbdd7c137	-0.105349
96	0xbc8dc1b9	-0.017304288
97	0xbe451fea	-0.19250455
98	0xbc435c8c	-0.01192392
99	0xbcec7c37	-0.028867824
100	0xbe4811a6	-0.19537982
101	0xbe13eaa2	-0.14444974
102	0xbe4a5777	-0.19759928
103	0xbe37f426	-0.17964229
104	0xbd841982	-0.06450178
105	0xbe6c14e3	-0.23054843
106	0xbd8efa20	-0.06981301
107	0xbdbdc49f	-0.09266018
108	0x3d81be56	0.06335132
109	0xbe1c17e3	-0.15243487
110	0xbddbcd06	-0.107324645
111	0xbdad0079	-0.08447356
112	0xbdba0927	-0.09083777
113	0xbe4978ea	-0.19675031
114	0xbe178b85	-0.14799316
115	0xbdc5ac76	-0.09652035
116	0xbe981bc3	-0.2970868
117	0xbdf73a38	-0.12071651
118	0xbe4e1499	-0.20125045
119	0xbe9c98ee	-0.30585426
120	0xbdc217f6	-0.094772264
121	0xbe58e648	-0.21181595
122	0xbe16ac82	-0.14714244
123	0xbe3e2718	-0.185696
124	0xbda71bbd	-0.081595875
125	0xbe80e18c	-0.2517208
126	0xbe84eafb	-0.25960526
127	0xbe65bd30	-0.2243545
128	0xbd6d9b78	-0.058009595
129	0xbddd421b	-0.10803624
130	0xbdcc1117	-0.09964197
131	0xbdbe1abd	-0.09282444
132	0xbe2f52df	-0.17121457
133	0xbdc4b7c6	-0.096053645
134	0xbe01dcb7	-0.12681852
135	0xbe01e468	-0.12684786
136	0xbdcb83d0	-0.099372506
137	0xbe10ea12	-0.1415179
138	0xbe7385a3	-0.23781447
139	0xbcf28555	-0.029604593
140	0xbdd3c6b2	-0.103406325
141	0xbe199ba8	-0.15000784
142	0xbddbb9e2	-0.10728814
143	0xbe3b8d99	-0.18315734
144	0xbe86d1a9	-0.26331833
145	0xbdb05dca	-0.08611639
146	0xbe17ee0b	-0.148369
147	0xbe693e6f	-0.22777723
148	0xbdfc70c6	-0.12326197
149	0xbe3e84fc	-0.18605417
150	0xbc23de0d	-0.0100016715
151	0xbcf89315	-0.030343572
152	0xbe53dcd2	-0.20689705
153	0xbe71abc3	-0.23600678
154	0x3b038f59	0.0020074456
155	0xbdc89774	-0.097945124
156	0xbe28ee61	-0.16497184
157	0xbd0601ab	-0.032716434
158	0xbdb04391	-0.08606637
159	0xbe06043d	-0.13087554
160	0xbc8a190a	-0.016857643
161	0xbe3bb36a	-0.1833016
162	0xbdc01960	-0.0937984
163	0xbbf77243	-0.007551463
164	0xbe151458	-0.14558542
165	0x3b52907e	0.003212958
166	0xbdaed904	-0.08537486
167	0xbe23ced2	-0.15996864
168	0xbde6d0c4	-0.11270288
169	0xbe7699d4	-0.24082118
170	0xbddc84b5	-0.10767499
171	0xbd84e92c	-0.064897865
172	0xbe869149	-0.2628272
173	0xbeb68687	-0.3564951
174	0xbe54f303	-0.20795827
175	0xbe4e8bf9	-0.20170583
176	0xbde4cf4b	-0.111723505
177	0xbe36d3ec	-0.1785428
178	0xbd0ea9d1	-0.03482992
179	0xbe3c945a	-0.18415967
180	0xbe7da4a7	-0.24769841
181	0xbd0f359e	-0.034963243
182	0xbe8376f0	-0.2567668
183	0xbe487271	-0.19574906
184	0xbdbeb943	-0.093126796
185	0xbdffe3a9	-0.124945946
186	0xbd8feda6	-0.0702775
187	0xbd66d547	-0.05635574
188	0xbc8f5b62	-0.01749963
189	0xbdaa600e	-0.08319102
190	0xbdb42a5f	-0.08797144
191	0xbe4d1f9e	-0.20031592
