yoda_weights.pth (torch, 517638 bytes, 42 tensors)

token_embedding_table.weight f4 [63, 56]
000000 c9 f8 b6 3e 13 46 d3 3d 57 9f 8a bd df e0 d0 be
       0.35736683 0.103161 -0.06768673 -0.40796563
000010 fd 34 ce 3e 5f 81 70 be a0 73 33 3e ab 80 4f be
       0.40274802 -0.23486851 0.17524576 -0.20263927
000020 ea 1f 72 be cb 85 08 3e a1 b1 09 bf f9 5e 00 bd
       -0.23644987 0.13332288 -0.53786665 -0.031340573
000030 97 71 35 be 9e f0 ad bd 88 6f b3 be 61 c5 0a 3f
       -0.17719112 -0.0849316 -0.3504603 0.54207426
000040 dd 9c 28 3f ce 71 6e 3e 8e fd 9b 3e 0e c3 27 3e
       0.65864354 0.232856 0.30466884 0.16383001
000050 e3 1f d1 be df fb b0 3e 0a f5 23 3f 1e 14 dd 3d
       -0.4084464 0.34567162 0.64045775 0.10794853
000060 14 c5 f0 bd 7e 39 f9 be 8d 76 64 bd 19 aa 55 3d
       -0.1175634 -0.48676676 -0.05577712 0.05216417
000070 d5 1c 17 3e 56 c2 e1 be cc 4d 86 3d 8a ef ea 3e
       0.14757092 -0.4409358 0.06557807 0.4588588
000080 ca 6d 28 be d3 3c e7 bd 44 b9 41 3e ca a6 6b 3e
       -0.16448131 -0.11290898 0.1891833 0.23012844
000090 47 72 a2 3e 92 06 ee 3e da 50 0d bf 44 63 bb be
       0.31727812 0.46489388 -0.55201495 -0.3659917
0000a0 9b 50 6e 3d cc 24 d2 bd 9d e7 81 3e 7b c2 2c bf
       0.05818234 -0.10260925 0.2537202 -0.67484254
0000b0 f2 c2 b7 be 1a 50 65 3e 66 c1 50 be d0 ae 77 3d
       -0.3589092 0.22393838 -0.20386276 0.06046945
0000c0 35 03 e0 3e 6a 6a dd be 20 ab dc 3e 02 9d ed bd
       0.43752447 -0.4324525 0.43099308 -0.116022125
0000d0 00 89 d1 be af d7 03 3f 50 0e 20 3f ff 15 d3 be
       -0.40924835 0.5150098 0.6252184 -0.4122772
0000e0 d9 ca 17 3f 42 de a8 be 5a 31 f3 3d b1 21 e6 bd
       0.59293896 -0.3298207 0.118746474 -0.11236895
0000f0 a9 c1 26 3e 2a 6d 96 3e 94 bb fa 3e 11 b9 2f be
       0.16284813 0.2938016 0.48971236 -0.17160441
000100 69 00 92 be 12 38 53 3e a4 21 c1 bc 82 21 95 3d
       -0.28515938 0.20626858 -0.023575611 0.07281782
000110 ee 80 13 be d3 38 d0 3d e7 1d 73 bd 9b 59 66 be
       -0.14404652 0.10167088 -0.05935469 -0.2249512
000120 40 9b 15 3f ad a7 8c be ff 79 c8 3d bd 33 1a 3e
       0.5844002 -0.27471676 0.09788894 0.15058799
000130 36 f3 d5 be 71 de 46 3e 6b 99 27 bd 07 c3 ee 3d
       -0.41787118 0.19420792 -0.040917795 0.11658292
000140 71 67 40 3f 92 69 bd be 4d e8 80 3e 08 5e 27 3e
       0.7515784 -0.36994606 0.2517723 0.16344464
000150 fe 33 d1 be 19 68 ae be 43 41 0e 3e e2 6c 6b be
       -0.4085998 -0.34063795 0.13892083 -0.22990754
000160 98 e3 f5 3d 46 97 d6 bd 3e 1a 4b 3e 7a e6 3f be
       0.12006301 -0.10478072 0.1983423 -0.18740264
000170 2d 1d c7 bc 8b 08 21 be a9 41 92 be ae 5e e2 bd
       -0.024305904 -0.15725915 -0.2856572 -0.11053215
000180 96 93 1b bf 36 93 93 be 67 d0 46 bd 96 1f a4 3e
       -0.60772073 -0.2882325 -0.04853859 0.32055348
000190 aa 47 f0 bc a2 94 7f be 8e d7 eb bc f1 89 76 bc
       -0.029331047 -0.24959043 -0.028789308 -0.015047536
0001a0 45 a3 15 be 79 d2 89 3d 41 02 26 3e fe da b4 3e
       -0.14613064 0.067295976 0.16211797 0.35323328
0001b0 99 57 22 3d d2 22 2c 3f 1e 11 43 be bb b2 ec be
       0.03963432 0.6724063 -0.19049498 -0.4623011
0001c0 f1 03 6b 3d 7b e1 5a 3d 33 a2 7e 3d 6c 02 0c bf
       0.057376806 0.05343769 0.062166404 -0.54691195
0001d0 85 5d 14 3e c1 f2 ce be f4 70 1e bf ce af 16 3e
       0.144888 -0.40419582 -0.618911 0.14715502
0001e0 1e b5 32 3f c4 4c a6 3e a0 83 50 be c3 d8 9d be
       0.6980761 0.32480443 -0.20362711 -0.3082944
0001f0 53 32 df be a8 d1 62 3e d5 29 c7 be 06 fd 8c be
       -0.43593082 0.2215029 -0.38899103 -0.27536792
000200 16 1d 60 be 1b 89 ac 3e d4 3a dc 3e ae c2 36 3e
       -0.21886095 0.33698353 0.43013632 0.17847702
000210 06 b4 8a 3e 80 1f 72 3e 9f 7e 35 3e f3 15 8b be
       0.27090472 0.23644829 0.17724083 -0.27165183
000220 df 40 b2 3c 27 4e 98 be 58 2d 69 3d be 1f fa 3c
       0.021759449 -0.29747126 0.05692801 0.030532714
000230 f7 01 ba 3e 2f 30 62 3e 22 2e 57 be ab 31 a1 bd
       0.36329624 0.22088693 -0.21013692 -0.078708015
000240 d8 2d 66 3f d7 96 df 3c c9 00 f4 be 53 7a 6b 3e
       0.899137 0.027293606 -0.4765685 0.22995882
000250 e2 28 15 be 4d 9e 42 be 28 11 e0 bd e6 f8 c2 3e
       -0.14566377 -0.190057 -0.10940772 0.3808052
000260 36 74 16 bf 3a 8b a1 3e 98 da 8f 3e 93 d5 a8 be
       -0.58771074 0.31551534 0.2809646 -0.32975444
000270 8d 3e 05 bf 36 6e 1a 3e 9c 9b c3 3e 94 49 04 bf
       -0.5204857 0.15081105 0.38204658 -0.5167477
000280 4f 33 9f 3e 6a 5e 84 bd 64 88 f1 3d 54 eb 3e 3e
       0.31093833 -0.064633206 0.117935926 0.18644458
000290 65 99 ce be e0 70 1b 3d c0 f4 58 3e 0e e6 d7 3e
       -0.40351406 0.037949443 0.21187115 0.42167705
0002a0 42 41 0b bf bb 41 0c 3f a1 02 d6 3d 15 c0 24 bd
       -0.5439645 0.54787797 0.1044972 -0.040222246
0002b0 cb 35 c3 be ee 35 c8 3e df b2 a1 be e9 2e 05 bf
       -0.38126978 0.39103645 -0.3158178 -0.52024704
0002c0 b8 a6 77 be 78 bb 5d bb 2f f1 b0 be d6 e8 69 bd
       -0.24184692 -0.0033833664 -0.34559008 -0.057106815
0002d0 bd e9 76 3e 93 b7 88 be d0 ea 0f bf 6d 73 61 3f
       0.24112602 -0.26702556 -0.5621767 0.8806675
0002e0 ed 10 95 3e a6 09 c7 3e 6e 00 25 3e 48 1d 4f be
       0.29114476 0.3887455 0.16113445 -0.20226014
0002f0 15 35 ba be b8 a0 e5 3e 19 12 12 3f fe 95 73 3e
       -0.36368623 0.4484918 0.57058865 0.23787686
000300 c4 66 6d 3e 3f c3 59 3d 4d 2c 55 3e c8 59 07 3f
       0.23183733 0.053164717 0.2081768 0.5287137
000310 bf 5a da 3e 79 b3 14 bf 1c a4 10 be 90 98 e4 3e
       0.4264736 -0.58086354 -0.14125103 0.44647646
000320 d5 03 4e be 8a 16 fe be e2 e6 83 3e b3 74 0d 3c
       -0.2011865 -0.4962657 0.25762087 0.00863378
000330 ef c3 f3 be 72 a2 98 be c1 2a 2b be cc 75 cc 3d
       -0.47610423 -0.29811436 -0.16715528 0.099834055
000340 0b 6a ea bd d6 1e 0c be 73 dd 7b 3e e9 97 12 bf
       -0.11446007 -0.13683638 0.24596195 -0.57263047
000350 be 9d 4f 3e 9a ee 5d be 8f ab c7 3e 97 9a f1 3d
       0.20275018 -0.2167305 0.38998076 0.11797064
000360 7e 11 e5 3e cd 04 21 3e 9a 5b 2f 3c 7c 31 c9 be
       0.44739908 0.15724488 0.010702992 -0.39295566
000370 d8 4f 73 be bd 1b fa bc 9b 78 e8 3e 27 0f 7a be
       -0.23760927 -0.030530805 0.45404515 -0.24419843
000380 0d 70 1c 3e b5 7c 1f 3d 94 7e 01 3d cd bf 85 3d
       0.15277119 0.03893729 0.031614855 0.06530724
000390 20 a7 5a 3e 94 02 45 3f 4b 19 a8 3e 17 35 72 be
       0.21352816 0.7695706 0.32831797 -0.23653065
0003a0 67 91 9d 3e cd 36 0d be 32 86 0b be 24 47 ca be
       0.30774996 -0.13790436 -0.1362541 -0.395074
0003b0 2d bb 8b 3d f8 f6 16 be 95 3c 16 be 55 14 21 3f
       0.0682281 -0.14742649 -0.14671548 0.6292165
0003c0 3a f7 e1 3e 8e 22 24 3e e3 7e 17 3e 4c 3d 04 bf
       0.4413393 0.16028807 0.14794497 -0.5165603
0003d0 56 01 2f bd 85 88 2a be 3f 8b 2d 3e 4d 45 19 3c
       -0.042725883 -0.1665364 0.1694765 0.0093549015
0003e0 53 a8 8b be 17 52 86 be 05 5e e6 bd bd 15 02 bf
       -0.2727686 -0.26234505 -0.112484016 -0.5081442
0003f0 d6 10 90 bd 43 45 01 bf 29 6a d5 3c b5 ef 1e bd
       -0.07034461 -0.5049631 0.026051598 -0.03880282

position_embedding_table.weight f4 [64, 56]
000000 96 92 2e bf f1 87 5b be 3b e1 0e bf 39 00 12 bf
       -0.6819242 -0.21438576 -0.55812424 -0.5703159
000010 08 35 dd 3b 3c d8 8a bd 05 5b 5d be 2d 4c ed be
       0.0067507066 -0.06779525 -0.21616752 -0.4634718
000020 33 99 81 3f ab 8f df be 6d 7d f0 3e 8f ec a8 3e
       1.0124878 -0.43664297 0.46970692 0.3299298
000030 b7 66 04 bf 76 5e 92 be 9f 86 e5 3e d6 57 78 3e
       -0.5171923 -0.28587693 0.4482927 0.24252257
000040 af db 11 bf bf f7 55 be 10 f4 0a bf 43 01 6a 3f
       -0.56975836 -0.20895289 -0.5427866 0.91408175
000050 7c f5 03 3e c3 9f 38 3f e8 ec 34 3f 3d ae 4e bd
       0.12886614 0.7211878 0.7067399 -0.050459135
000060 a0 b1 c6 be db 91 1b bf a0 4f af 3e 22 82 fa be
       -0.38807392 -0.6076943 0.34240437 -0.48927408
000070 ba d2 78 3e 25 6f 88 bf ca 19 99 3e 4f a7 5a bf
       0.24299136 -1.0658919 0.29902488 -0.8541154
000080 d0 3c 17 bd 97 a2 32 3d 7f d6 ef 3e ef ec 0f bf
       -0.03692323 0.04361209 0.46843335 -0.56220907
000090 1f 93 70 3f a6 82 c7 bd 76 56 b9 be f4 e5 1d 3f
       0.9397449 -0.09741716 -0.36198777 0.61679006
0000a0 9c bf aa be 71 fd 8b bf e9 a2 69 3e f3 49 2b bf
       -0.3334931 -1.0936719 0.22816052 -0.6690971
0000b0 4f 28 79 3f 78 96 2d bf cf e5 02 3f c4 9a e1 be
       0.9732713 -0.6780772 0.5113191 -0.4406339
0000c0 42 c5 d6 3e 6b 29 85 be 74 35 82 3f ba 6e 3f 3f
       0.4194737 -0.26008162 1.0172563 0.7477833
0000d0 a6 69 b6 3f 25 19 32 be 9c 4e f4 bd 52 8f b8 3e
       1.4250991 -0.17392404 -0.11929056 0.36046845
0000e0 a6 ba 0f 3e 1b dc bf bd cc 83 81 be 30 a1 5c bd
       0.14036044 -0.09368154 -0.25295866 -0.053864658
0000f0 34 88 72 be 80 a9 0e 3e d3 65 b6 bd da af 08 3e
       -0.2368477 0.13931847 -0.0890614 0.13348332
000100 e0 f1 51 3d 88 9f 46 be bc fa 31 be d8 e3 ac 3e
       0.05125606 -0.19396794 -0.17380804 0.3376758
000110 56 af ef be a2 12 8c be 10 d5 71 3f b0 36 a2 3e
       -0.46813458 -0.27357966 0.9446573 0.31682348
000120 43 b2 bf 3e be 2b 5c 3d 87 97 3e be 18 c6 82 bd
       0.3744069 0.053752653 -0.1861249 -0.0638544
000130 90 dd 50 3e 74 05 56 3e 04 68 68 3e a4 07 82 bd
       0.2039702 0.20900518 0.22695929 -0.063491136
000140 1b 92 80 be 96 a8 e4 bb d2 09 b1 be 93 65 4e bd
       -0.2511147 -0.006978105 -0.34577805 -0.050389837
000150 80 ec c2 3e 3d ab 90 bc 12 7a 0d bd a8 59 46 be
       0.3807106 -0.017659778 -0.034540243 -0.19370139
000160 34 b9 ca be 93 20 2c 3f 93 11 ae 3e ec 1d cb be
       -0.39594424 0.67237204 0.33997783 -0.39671266
000170 a9 b1 2d 3e 94 1f 7a be 78 19 d0 be 88 a0 70 3e
       0.16962303 -0.24426109 -0.4064443 0.23498738
000180 6c f3 86 be c7 1c 76 bd 8a 8e a6 bd 32 99 ac be
       -0.2635759 -0.060086038 -0.08132656 -0.3371063
000190 62 5b 80 3e 93 c1 e0 be 93 f8 26 3e cc eb 8b be
       0.2506972 -0.43897685 0.16305761 -0.27328336
0001a0 ee 0e cf bd 9b ea 36 bd 9b a7 08 3f 1f 84 0c 3e
       -0.101102695 -0.04465733 0.53380746 0.13722275
0001b0 88 ec 22 3e d0 23 ba bd 08 dc e5 be 3d 13 9b 3e
       0.15910542 -0.09088862 -0.44894433 0.30288115
0001c0 e3 5f 9b be ea f9 24 3d 7e ef 39 be cf 37 42 be
       -0.30346593 0.0402774 -0.18157765 -0.18966602
0001d0 15 0b 10 bf 46 50 17 be 96 3f fe 3d 5f b0 0e 3e
       -0.5626691 -0.14776716 0.12414472 0.13934468
0001e0 2c 49 6c 3e d6 8c 83 3e 3b 79 a3 3d b8 4f 29 3f
       0.23074788 0.25693387 0.07982107 0.66137266
0001f0 d1 81 d0 be 87 07 92 3c 59 c5 d4 3e d9 11 0a 3e
       -0.40724042 0.017825855 0.41556814 0.13483371
000200 31 42 b7 3e 11 88 27 3e 4a ae 86 be 1d 39 0c be
       0.35792688 0.16360499 -0.26304847 -0.13693662
000210 07 91 06 3d 56 5a ae 3e d8 63 b8 bd af 94 c0 3d
       0.032853153 0.34053296 -0.09003419 0.09403359
000220 6c 60 cc bc 68 3d 93 3b 8b db 6f be cd e5 4c 3e
       -0.024948321 0.004493404 -0.23423593 0.20009537
000230 68 16 e4 3d 32 3e 74 be d8 ba 8b 3e 44 cb 07 3e
       0.11137086 -0.2385185 0.27290988 0.13261133
000240 5d 70 eb be 13 a6 92 3e 1d 98 a7 3d 69 7e 0a bf
       -0.45984164 0.2864233 0.0818331 -0.54099137
000250 e7 9b e6 3e 45 bf b4 be 38 9b ad be 83 08 d9 3e
       0.4504082 -0.35302177 -0.33907485 0.42389306
000260 0d 76 14 3d ba ec 40 3d e2 0e 96 bd 60 c9 3a be
       0.036245394 0.04710076 -0.073270574 -0.18240881
000270 eb fa a8 bc 96 1f 73 3c 60 0e ed 3e e8 55 b8 bd
       -0.02062746 0.014839074 0.4630003 -0.0900076
000280 17 99 79 bd 2a dd 1c be 9d 76 0d 3f 8e bc 20 3e
       -0.060937013 -0.15318742 0.55259115 0.15696928
000290 f0 27 95 3d eb 02 6b be 07 2f 7e be 80 1d 05 3e
       0.07283008 -0.22950332 -0.24822627 0.12999535
0002a0 a2 de 1a bd a1 4b 11 3e 12 0d 81 be 13 46 2a be
       -0.037809975 0.14189006 -0.25205284 -0.16628294
0002b0 f4 20 29 be 30 4a 3b bd 7f b3 8c 3c 79 4d 97 be
       -0.16516477 -0.045725048 0.017175434 -0.29551294
0002c0 14 5a cb 3c cd c0 8f be b8 9a 26 be be 71 e8 3d
       0.024823226 -0.28076783 -0.16269958 0.113498196
0002d0 1a cb 10 bf 84 4e 40 3d 41 f3 40 3f 36 cd 8e bd
       -0.5655991 0.04694988 0.75371176 -0.06972735
0002e0 00 33 dc 3d 67 4c 70 be 24 ad c0 bd af 0a 4a bd
       0.10751915 -0.23466645 -0.09408024 -0.049326595
0002f0 7a 41 e0 3d 82 ba ee 3d b4 fc 15 3d 22 cc a3 bd
       0.10949989 0.11656667 0.03661795 -0.079979196
000300 97 17 69 bd 20 46 35 be cf ad d6 be 50 0c 7f bd
       -0.056907263 -0.17702532 -0.4192948 -0.0622676
000310 ce ac 9d 3e 70 2a bb bd 89 0f af 3e b8 1d a5 bd
       0.30795902 -0.09138954 0.3419154 -0.08062309
000320 b3 23 dc 3b a1 39 00 3f 82 7f 88 bd c7 3b 36 3d
       0.006718123 0.50087935 -0.06664945 0.044490602
000330 da 91 5c 3e fd 4d 8d be c2 36 68 be 5a 4a 4a 3b
       0.21540013 -0.27598563 -0.22677138 0.003086707
000340 da 59 ef bd 57 76 7f bd 10 7e 1e be 4a 89 34 be
       -0.1168706 -0.062368717 -0.15477777 -0.17630497
000350 48 34 9b 3e f3 8f a8 be a2 e3 ad 3e 22 7f 25 3e
       0.30313325 -0.32922325 0.33962733 0.16161779
000360 ea 16 ba bd 8c 84 cd bd 6f e0 c8 3e 72 2f 43 3e
       -0.09086402 -0.10035047 0.3923373 0.19061068
000370 eb 5f 4e 3e 18 9f 2d bc 28 dc 16 be ac a0 6b 3e
       0.20153777 -0.010597013 -0.1473242 0.2301051
000380 ff 3f a9 bd e0 4b 1d 3d 78 b3 23 be 54 e2 99 be
       -0.082641594 0.03840244 -0.1598643 -0.30055487
000390 f1 b2 08 bf ae ac 6d bd 92 16 85 3d bb 2a 89 be
       -0.5339804 -0.05802601 0.064984456 -0.26790413
0003a0 7b 11 25 3e fc 3e 6f bd 2e f0 91 bd 5d a8 ef 3e
       0.1611995 -0.058409676 -0.07125889 0.46808138
0003b0 09 14 c1 be a5 1b a6 3d a0 ee 94 3e cc ba 63 be
       -0.37710598 0.081107415 0.29088306 -0.22239226
0003c0 ab ef ae 3e e9 c6 9b 3e 50 39 9e be 0f d8 cc 3c
       0.34167227 0.30425194 -0.309031 0.025005369
0003d0 ee 2b 21 3c 81 d7 01 3d 41 e3 6e 3e 1c 85 87 bc
       0.009837134 0.03169966 0.23328878 -0.016542964
0003e0 88 42 f1 bd 43 a2 2e bd 1f 28 68 3d 57 8a 8a 3e
       -0.11780268 -0.042635214 0.056678887 0.2705867
0003f0 29 bc 30 3e be e4 8c 3d a5 54 9b 3e 89 4c 60 3e
       0.17259277 0.068795666 0.30338016 0.21904196

transformer.layers.0.self_attn.in_proj_weight f4 [168, 56]
000000 18 21 c8 bd e3 21 e8 bd bc 98 9d 3d 1a cd 38 be
       -0.09771937 -0.113345884 0.076951474 -0.1804699
000010 8b aa a3 be 8f d4 11 bf 42 0e 82 be fe 9d cb bd
       -0.3196605 -0.56964964 -0.25401503 -0.09942244
000020 ab 4d 8e 3e 28 d8 84 3d 18 9d 89 bd f3 6e 19 3f
       0.2779363 0.06486541 -0.067194164 0.5993492
000030 fd 22 8b be 18 ce 05 3e f2 5f 44 be 0b 1c d1 3e
       -0.2717513 0.130669 -0.19177225 0.40841708
000040 98 ad 43 3e 79 90 11 3f d6 65 c8 bd d0 04 a0 bd
       0.1910919 0.5686107 -0.09785049 -0.07813418
000050 03 9b 3a be 93 0f c5 be 8a 8a da 3d bc 43 06 3e
       -0.18223195 -0.38488445 0.106709555 0.13111776
000060 de 30 c1 be 7f 37 3e be e0 4b cf 3e 7a e2 35 3e
       -0.37732595 -0.18575858 0.40487576 0.17762175
000070 36 6f 8b 3e a6 7c e3 3c 25 66 a0 be bf 2e 90 be
       0.27233285 0.027769398 -0.3132793 -0.28160664
000080 de 32 0d 3e 29 74 80 3e 30 4f 6b be 3a f6 48 bd
       0.13788936 0.25088623 -0.22979426 -0.049062945
000090 7d 18 3d be df e2 a5 3d 5d 05 24 bc 14 7a c9 3c
       -0.18466373 0.08099913 -0.010011044 0.024594344
0000a0 67 4b 47 3e f7 24 75 3d 45 84 ba 3e 8f 28 76 be
       0.19462357 0.059849706 0.3642904 -0.2403891
0000b0 9c 8b b3 3e ba 86 83 be 22 ab 7a 3e 2b 25 bd 3e
       0.3506745 -0.25688726 0.24479344 0.3694242
0000c0 95 12 3e 3e f3 5e c7 bd 8b e6 70 be 98 95 89 be
       0.18561776 -0.09734907 -0.23525445 -0.26871943
0000d0 2a ac ba 3d da b8 a7 be 01 54 de ba 08 df b5 3e
       0.09114869 -0.32758218 -0.0016962291 0.35521722
0000e0 b0 0a 7f bd 66 3a 09 3e 53 26 b2 3c 5c 05 a6 be
       -0.06226605 0.13401183 0.02174679 -0.32425964
0000f0 21 64 ab be 0c ba 44 3c ae f4 a4 3e 53 ca 8d be
       -0.3347483 0.012007248 0.32217926 -0.27693424
000100 56 af 02 3e 37 bf c0 3d d9 1b 85 be 92 c0 bd 3d
       0.12762198 0.09411471 -0.2599781 0.092652455
000110 99 30 04 3e 35 8c 4d 3e 5d 56 2e be 02 53 8a be
       0.12909164 0.20073016 -0.17025132 -0.27016455
000120 58 4e e7 bd 5b 49 6b 3e e4 e7 30 3c 69 74 c2 3d
       -0.1129424 0.22977202 0.0107974745 0.0949486
000130 18 25 00 3e 3a 43 1e 3e 85 02 a2 be 85 88 ea 3d
       0.1251415 0.15455332 -0.31642547 0.1145182
000140 85 e4 9c 3e bc e9 f4 bc ea bc 52 3e 97 e9 54 bd
       0.30643097 -0.02989661 0.20579877 -0.05198058
000150 00 47 33 bd dc cd f2 3d 7f 9e 76 3d 25 cf 0a 3f
       -0.043768883 0.11855671 0.060209747 0.5422233
000160 96 ec bd bd 08 4a e7 bd 2d fb 64 be e6 5f 26 bd
       -0.09273641 -0.11293417 -0.22361441 -0.0406188
000170 20 52 b4 3d 57 cc a2 3c ea 72 28 3e f4 ef e1 bd
       0.088047266 0.019872827 0.16450086 -0.110320956
000180 fa 86 3b 3c 96 4c 09 be b9 10 8f 3c 30 5e 4c be
       0.011445755 -0.13408121 0.017464029 -0.19957805
000190 ad 42 e2 bd 1f e8 9f bc 8b b6 2e 3e da 76 f0 bd
       -0.11047874 -0.019519864 0.17061822 -0.11741419
0001a0 0d 8c 01 be a0 a6 25 3d 98 2e 8c be 87 88 13 3c
       -0.12651081 0.04044211 -0.27379298 0.009004719
0001b0 c4 50 7d 3e e1 48 e2 bd 51 63 eb 3c d0 84 0e be
       0.24737841 -0.11049057 0.028733881 -0.13917851
0001c0 9f 60 3f 3e bd e6 fe 3d 24 46 24 3d de c1 06 bd
       0.18689202 0.124463536 0.040105954 -0.03289973
0001d0 b4 c3 0d be 6d 41 b6 3c ae 89 73 be 42 23 b2 3e
       -0.13844186 0.022247994 -0.2378299 0.34792525
0001e0 5e a3 93 3d f4 de 90 3e 74 cb aa 3e d8 1d a9 bd
       0.07208894 0.282951 0.33358347 -0.08257645
0001f0 0e ec b6 bd 86 56 98 be db 47 2e be bd 7a 9e 3d
       -0.089317426 -0.29753512 -0.17019598 0.07738254
000200 cf b6 84 bd b7 18 31 be 5c 21 24 3e 3e 7a 87 bd
       -0.064801805 -0.17294584 0.1602835 -0.06615113
000210 9c 82 94 3e a0 33 7e 3d 39 db 7c 3d d4 8c 5e 3d
       0.29005897 0.062060952 0.061732505 0.054333523
000220 d2 3d b7 bd 52 a4 42 be e3 44 6f bd a5 ac a2 bd
       -0.08947338 -0.19007996 -0.058415305 -0.079430856
000230 84 e4 08 bd d7 d6 7c bd 58 6e dc be ca d8 59 3c
       -0.033421054 -0.061728325 -0.43052936 0.013296315
000240 a4 1a 9e bc 18 20 93 be be f5 da 3b a8 af 61 be
       -0.019299813 -0.28735423 0.006682127 -0.22039664
000250 98 d8 52 3e 82 b0 ae be 99 2d 38 be 04 e4 57 3e
       0.20590436 -0.3411904 -0.17986144 0.21083075
000260 52 3a ba 3c 87 93 52 3e e0 c0 79 3d 79 5c a9 be
       0.022732887 0.2056409 0.060974956 -0.33078364
000270 9c a4 0f 3f 1a fb e4 bb 46 47 2f be aa 05 e4 bd
       0.5611055 -0.0069879415 -0.17117032 -0.11133893
000280 44 87 a0 3e c0 94 b6 bd 34 63 20 3e be 79 f8 3c
       0.313532 -0.089150906 0.15662843 0.030331489
000290 8a 18 3a 3e 92 04 8b 3e 0e bf 9a bd 7f c6 ac 3d
       0.18173423 0.27151924 -0.07555972 0.084362976
0002a0 3c 0b 42 3d d2 0f 47 3e f3 b3 00 3d 0d 02 47 bd
       0.047373995 0.19439629 0.031421613 -0.04858594
0002b0 68 db 5f 3d a4 07 fe 3c 0d 88 63 bd f6 dc f6 be
       0.0546526 0.031009503 -0.05554967 -0.48215455
0002c0 5c 6a 53 be 39 8e ff 3d c3 37 0a be 6a 98 bd 3e
       -0.20646042 0.12478299 -0.13497834 0.37030345
0002d0 c4 50 3c 3d 16 64 47 3e 07 ce 14 ba 3a 7c 97 bc
       0.04597546 0.19471774 -0.00056764524 -0.018491853
0002e0 cb 21 bd 3d aa dd 56 3b c5 8d c2 3d 36 f6 0f 3e
       0.09234961 0.003278593 0.09499697 0.14058766
0002f0 20 6f 3e 3b c8 c6 62 be f0 fb 2c 3e 8f 54 02 be
       0.0029057935 -0.22146142 0.16892982 -0.12727569
000300 f7 f3 91 39 c0 dd 7d be 60 f9 92 3e 93 ab 23 3e
       0.00027838323 -0.24791622 0.28705883 0.15983419
000310 a3 70 ac bb df 3c 12 bb 06 62 19 bc 45 77 ba be
       -0.005262451 -0.0022314114 -0.0093617495 -0.3641912
000320 e8 da 02 3d 26 d9 b3 bd 5b 52 fe 3d 76 d1 d4 bd
       0.031947047 -0.08781652 0.12418052 -0.10391514
000330 e7 1a 06 3d 6d a3 3b bd f9 84 e1 3d 9c 42 13 be
       0.0327405 -0.04581015 0.11011691 -0.14380878
000340 93 7c 9c be 87 88 6a 3e 2c 95 74 3d aa e1 79 3e
       -0.30563793 0.22903644 0.059712574 0.2440249
000350 c5 c7 d0 3e 58 27 39 3e 55 c1 d3 3d b8 05 19 3d
       0.40777412 0.18081415 0.103396095 0.03735897
000360 c0 51 be be 95 f5 45 3d a6 0b d3 be 75 54 38 bd
       -0.37171745 0.04832991 -0.41219825 -0.04500242
000370 44 60 c4 3c 53 36 ba bd e3 d8 c3 3c 61 61 4a 3e
       0.023971684 -0.09092393 0.02390713 0.1976371
000380 22 15 e6 bd ff fb 81 be b2 10 ac 3d 6d 08 d6 3d
       -0.112344995 -0.2538757 0.08401622 0.10450826
000390 fb ea 4c 3e 46 53 80 be 33 1e d4 bd e8 b3 90 be
       0.20011513 -0.25063533 -0.103573225 -0.28262258
0003a0 96 b6 e2 be 0e 1a 8d 3e da 6a bb be 62 cd 0a 3e
       -0.44279927 0.2755894 -0.3660496 0.1355491
0003b0 ab 54 64 be 01 a0 5f 3e d3 e2 8a bd 9e a3 5e be
       -0.22297923 0.2183838 -0.067815445 -0.21742103
0003c0 7c b4 0c 3e a9 7d fd 3d 37 8b 9b 3e f3 f0 b6 bd
       0.13740724 0.123774834 0.3037965 -0.08932676
0003d0 25 e4 0e bf 16 1d 92 3d f9 92 fc 3d c5 bb c7 be
       -0.5581687 0.07134454 0.1233272 -0.39010444
0003e0 fd d6 17 bc cf 35 da bd 3e bb 86 be 22 f2 0a be
       -0.009267566 -0.106547944 -0.2631473 -0.13568929
0003f0 14 68 fb bb ac 8c 4e be fd fd 2e 3b a2 f1 3c 3e
       -0.007672319 -0.2017085 0.0026701682 0.1845155

transformer.layers.0.self_attn.in_proj_bias f4 [168]
000000 dc 8f f7 be 46 40 27 3e 54 9c 74 bd b7 ba 19 be
       -0.48351943 0.16333112 -0.0597194 -0.15012632
000010 1a 78 e6 bd 78 e1 21 3f 21 4a dd bd 9d 6e 8e 3d
       -0.11253376 0.63234663 -0.108051546 0.069546916
000020 15 05 68 3e 5a b9 99 be 20 1a 59 3e 8b f9 9f be
       0.22658189 -0.30024225 0.21201372 -0.31245074
000030 d8 54 92 be 7b 1b 7e be 3b 93 90 be ee b0 ce 3d
       -0.28580356 -0.2481517 -0.28237328 0.100923404
000040 df bf ca 3e 3a ff 3a 3e 15 14 5d bd b4 40 27 be
       0.3959951 0.18261424 -0.05397423 -0.16333276
000050 08 1c 45 be 5a a7 ed be ab 82 94 3e 39 a5 95 3d
       -0.19248974 -0.46416742 0.29005942 0.07306904
000060 a5 f0 62 3e 3f 33 72 be 80 6c 0d 3f 32 55 ed be
       0.22162111 -0.23652361 0.5524368 -0.4635406
000070 46 4f a9 bd ca 5c 52 bc ef 56 ad 3c bd 06 c1 3e
       -0.08267073 -0.012839505 0.021159617 0.37700453
000080 1b bf 8e 3e 58 26 36 3c 8e 38 af be 5c ef d1 3d
       0.27880177 0.01111754 -0.34222835 0.10250732
000090 1c 14 09 3f b1 6a 13 3d e9 a4 77 be f6 f1 35 be
       0.5354631 0.03599042 -0.24184002 -0.17768082
0000a0 82 d0 8c bd 68 48 ea 3e a6 95 94 3d a9 cf 26 3e
       -0.06875707 0.45758367 0.07255106 0.16290154
0000b0 45 25 b1 be 7d 50 fd 3e 88 34 1b bf 60 84 8c bd
       -0.34598747 0.4947547 -0.6062703 -0.06861186
0000c0 9c 7b 20 3e 35 4b fc be 19 4f f6 3e 2c 08 c5 3e
       0.15672153 -0.49276128 0.48107222 0.38482797
0000d0 c6 98 92 bd 70 4a 15 be 96 e5 2a 3e eb c7 b4 3d
       -0.071580455 -0.14579177 0.16689143 0.08827194
0000e0 12 5f ef 3b 09 0b 22 3a 2f 5b e9 3a 04 ac 38 3b
       0.0073050344 0.0006181454 0.0017803664 0.0028178701
0000f0 71 96 23 3b 30 a2 d5 bb 29 99 01 3a 48 e4 03 b9
       0.0024961496 -0.0065195784 0.0004943782 -0.00012578175
000100 26 ff 20 bb 90 75 c3 3b d4 51 f1 ba 50 1f 8b 3a
       -0.0024566143 0.0059649423 -0.0018411228 0.001061419
000110 86 de 8e 3b c0 c5 6f 3b d3 cd d4 39 08 8f b7 ba
       0.004360023 0.0036586374 0.00040589142 -0.0014004419
000120 4d e7 30 ba 83 b2 ce ba c5 3d 87 ba b1 94 b7 ba
       -0.00067483337 -0.0015769753 -0.0010318091 -0.0014006105
000130 34 f5 92 b7 8b 8a 0c bb 2f 6d 41 ba 00 02 bd 3a
       -1.7518738e-05 -0.0021444883 -0.00073786353 0.0014420152
000140 23 00 73 3a a3 ac 03 bb 54 74 f4 ba cb 0a 49 b9
       0.0009269735 -0.0020091913 -0.0018650391 -0.00019172874
000150 1f 47 90 3a d6 11 89 3a c0 11 cf ba 40 80 5e ba
       0.0011007524 0.0010457586 -0.0015798137 -0.00084877387
000160 15 40 e4 ba 5a c8 ce 3a 23 fc 5c 3a fe 49 01 bb
       -0.0017414117 0.0015776262 0.0008429905 -0.001972794
000170 d2 64 19 3a 74 a3 02 b9 74 8c 99 3a 94 50 99 39
       0.000585151 -0.00012458657 0.0011714832 0.0002924247
000180 a9 12 11 b9 55 37 83 bb d4 7f cd ba cf 01 12 ba
       -0.00013835229 -0.004004399 -0.0015678355 -0.00055697275
000190 26 9f 15 bb 1a 3f 3f bb 1b 85 b6 ba 71 b6 e9 3a
       -0.0022830456 -0.0029181899 -0.0013925167 0.0017830861
0001a0 3d 8c 42 ba 11 df a3 b9 dd ab f3 ba ef e0 be ba
       -0.000742141 -0.0003125598 -0.0018590648 -0.0014562885
0001b0 04 e5 fe b9 6f 12 45 3b c7 39 43 b9 d0 00 4c ba
       -0.00048617285 0.0030070802 -0.00018618173 -0.00077821035
0001c0 84 2a 60 3d 0d 29 c4 bc 09 f6 89 bc 01 93 07 3d
       0.054728046 -0.023945356 -0.016840952 0.03309918
0001d0 57 82 8d 3c f6 f3 c6 bc 33 c5 05 3d 81 46 f7 bb
       0.017274065 -0.024286252 0.032658767 -0.0075462465
0001e0 3a f5 29 bd 37 93 f2 bb 8a e0 56 bc 58 17 13 bd
       -0.041493632 -0.0074028033 -0.013115058 -0.035910934
0001f0 1f 03 e0 3c 5f 18 5d 3c 8e 91 0c 3c 24 fe 28 bd
       0.027345238 0.01349458 0.008579625 -0.041257992
000200 ae 2d 8a 3c 7c b2 44 bb 13 ac 60 bc ad 45 d5 bc
       0.016867485 -0.0030013612 -0.013712901 -0.0260342
000210 81 b5 45 3c 65 6a 35 3c 7d 8d 70 bc b4 94 cc bc
       0.0120672 0.01107273 -0.014682171 -0.02497325
000220 56 57 27 bd 71 6d ed 3c 66 bc 5b bc be df 14 3d
       -0.040854774 0.02898285 -0.013411617 0.03634619
000230 ee c8 e9 3c c0 f7 7c bc 12 e7 a8 3c 3e c5 74 bd
       0.028538194 -0.015439928 0.020617995 -0.059758417
000240 02 ae eb bc 43 af 0e bc 96 30 56 3d ef 73 5a bd
       -0.028769497 -0.008708778 0.05229243 -0.05333322
000250 3a ea 3b bc 5e 8b f2 3c 46 4b 10 3d 60 f0 2a 3c
       -0.011469418 0.029607471 0.035228036 0.010433286
000260 02 95 02 bd 12 1d bb bc 26 c4 0d bd 38 ae df bb
       -0.031880386 -0.02284101 -0.03461089 -0.0068261884
000270 29 21 65 3c ca d7 de 3c 17 c6 32 3b 61 b8 81 bd
       0.013984957 0.027202506 0.0027278715 -0.063339956
000280 0d 16 6e 3c e2 de 3b bd aa d1 55 3d 0d 3b 89 bd
       0.0145316245 -0.045866854 0.052201904 -0.06700716
000290 0b 17 a0 3c 4f 95 89 bc a7 92 89 3b 4e 13 e3 3c
       0.019542238 -0.016794829 0.0041983905 0.027719166

transformer.layers.0.self_attn.out_proj.weight f4 [56, 56]
000000 57 67 18 3c 21 07 17 3d dd 82 95 bc ce 76 3a bc
       0.009301982 0.036872033 -0.018250877 -0.011380864
000010 95 78 2b bc 81 4a 0e be d1 9e d7 bc 5b 5b c9 bc
       -0.010465761 -0.13895608 -0.026320847 -0.024579694
000020 70 e5 87 bb d1 5b 38 bd 60 f5 1e bd 7b 48 91 3b
       -0.004147224 -0.045009438 -0.038808227 0.004433689
000030 6f 1e 81 bc 67 06 ac bd a5 05 f6 bb a1 15 a7 3c
       -0.015761582 -0.08399659 -0.007507997 0.020396056
000040 ab 65 b5 bd bc 5c 17 bc b0 44 32 bd e9 6b d8 3c
       -0.08857282 -0.009238418 -0.043522537 0.026418643
000050 8e f2 4a bc 5d 92 98 bd f0 d4 5b 3d d8 03 8e 3b
       -0.012386931 -0.074497916 0.05366987 0.0043339543
000060 77 b8 fc bd 25 36 07 bd e5 58 98 3d 16 51 6b bd
       -0.123398714 -0.03301062 0.0743883 -0.057450376
000070 49 82 d4 bc f3 f6 66 3c a6 5a 01 bc 7b 7f 0e 3d
       -0.025941031 0.014096963 -0.007895147 0.034789544
000080 1d cf 8f bd a1 de 86 bc 02 69 02 3d de ae 17 3d
       -0.070219256 -0.01646358 0.031838425 0.037032
000090 0d cb da bc d2 a4 11 be d7 dc fa 3c a8 50 35 bd
       -0.02670815 -0.1422303 0.030622883 -0.044266373
0000a0 0d a9 52 3d 53 64 2c 3c a3 47 8e ba 31 a8 0e 3c
       0.05143075 0.010521966 -0.001085509 0.008707092
0000b0 eb b1 a1 3b 66 c3 c0 bc 1a de 4f 3d 93 4e 29 bc
       0.0049345396 -0.023530673 0.050748922 -0.010333675
0000c0 4b 31 bd bd 9e a6 fa 3c aa 6f 8e bd cf 1b ee bd
       -0.092379175 0.030597027 -0.06954892 -0.11626398
0000d0 1a 08 57 bd aa cb 48 bd d1 e0 16 3d 6a 78 5b bd
       -0.05249796 -0.049022354 0.036835495 -0.053581633
0000e0 a9 24 06 bc 97 4b d2 bc 1b f9 b8 bb f9 8d af bc
       -0.008187451 -0.02567081 -0.00564493 -0.021430003
0000f0 e6 db 0b bd c3 f1 09 3d 26 d8 b8 bc 3a 34 d5 3c
       -0.03414526 0.033677828 -0.022564005 0.02602588
000100 b3 84 aa bd da d0 f3 ba 1d 8d 0c 3d 75 fb a3 bc
       -0.083260916 -0.0018601671 0.034314264 -0.020017365
000110 da e3 18 3d 1c 79 27 bd 0f f0 94 3d 74 74 e1 3c
       0.03732667 -0.040886983 0.0727235 0.02752135
000120 bc c0 e5 bc 8a a3 38 3d 17 24 6f 3c ba 4c 54 3d
       -0.028046004 0.045077838 0.014596007 0.051830985
000130 c7 0a 24 3d ab ff 34 bc 54 86 e0 bc 82 ab b3 3b
       0.04004934 -0.011047284 -0.027407803 0.005483092
000140 04 d1 44 bc c3 be ef 3c ab 58 84 bd 9b 86 00 3d
       -0.012012724 0.029265767 -0.064622246 0.03137837
000150 ee a5 f7 bb 94 06 99 3b e8 40 43 3d 02 41 41 bd
       -0.007557622 0.0046699736 0.04766932 -0.047181137
000160 86 3d 01 bd 54 22 95 3d bc 8a 88 3d 3b c9 28 3c
       -0.031552814 0.07281938 0.066670865 0.010301883
000170 69 68 ea bc 58 d1 0b 3d 79 72 47 bd 54 7f 0d bc
       -0.02861424 0.034135193 -0.048693154 -0.008636314
000180 ec 79 c3 bc 65 d8 0b bd 33 a3 b4 bc 11 1a 87 bc
       -0.023861848 -0.034141917 -0.022050476 -0.016491922
000190 6b 9c de 3c 8c 7b 10 3d e5 b4 04 3d 16 bf 1c bd
       0.027174195 0.035274073 0.032399077 -0.03826817
0001a0 de 6e a9 3d a4 ef 2b 3c 2c 50 05 3d 2b 03 d1 3b
       0.08273099 0.0104941465 0.03254716 0.0063785515
0001b0 91 76 98 bc 15 25 e9 ba fa 16 c0 3c 5e 18 7e bd
       -0.018611224 -0.001778754 0.023448456 -0.062034957
0001c0 a9 fc 3a bd 5e b9 fb bc b0 a0 a3 bc 92 74 8c bb
       -0.04565111 -0.030728038 -0.019974083 -0.004286357
0001d0 df 04 93 3d 9e 89 9b 3d 74 98 06 3d cf 4e 90 bd
       0.071786635 0.07594608 0.032860234 -0.070462815
0001e0 39 cf 37 bd 91 9c b3 bb 17 52 f4 bc a4 d4 e2 ba
       -0.044875357 -0.0054813107 -0.0298243 -0.0017305803
0001f0 84 b8 15 bd 8f 95 c7 bd 55 bb 42 3d 68 2e 4d 3b
       -0.03655292 -0.09745323 0.047541935 0.0031308178
000200 2e 20 8c bd 2b 07 02 bd e4 38 a6 bc da 78 3a 3d
       -0.06842075 -0.031745117 -0.0202908 0.04552541
000210 b5 d1 55 bd 6f c8 20 bc 15 a0 60 bd 58 04 98 3c
       -0.052201945 -0.009813412 -0.054840166 0.018556759
000220 f9 3c 7e 3d f9 06 7a 3c bb 07 dd bc a3 bc bf 3c
       0.062069867 0.0152604515 -0.026981225 0.023405379
000230 1a af 28 3d 65 8f 1f bd cd 4f 59 3d 95 11 4b bb
       0.041182615 -0.03895511 0.05305462 -0.0030985822
000240 58 60 3a 3c 94 59 54 b9 62 bd 4d bc 25 c5 84 3d
       0.011375509 -0.00020251266 -0.012557359 0.06482915
000250 68 a9 e1 bc 9e 2c 52 bd 1d 8a 15 3d 7d 04 89 3d
       -0.0275466 -0.05131208 0.03650867 0.06690309
000260 49 2e dd ba a3 d7 03 3d 5c 4d 23 bd 4f fb 16 bd
       -0.0016874756 0.03218807 -0.039868698 -0.03686076
000270 95 66 3a bd 83 6b 43 bd 92 9d 8e 3d c1 17 0d 3d
       -0.045507986 -0.047709953 0.06963648 0.03444648
000280 f3 04 b0 3c 8f 2f d2 3c 03 bc 14 3d 7f 90 5e bd
       0.021486735 0.025657443 0.036312114 -0.05433702
000290 07 d8 5f 3d b0 7a ef 3c eb cd ed 3d 27 78 70 bd
       0.05464938 0.029233307 0.11611541 -0.058708336
0002a0 4e 4e f9 bc 51 1f 49 bd 3c 9b 61 3d 4f cc 6c bd
       -0.030432846 -0.04910213 0.055079684 -0.05781203
0002b0 03 ae c0 3c 37 54 8f bb 82 ba fd 3c ab 85 77 bc
       0.023520475 -0.004374053 0.030972723 -0.0151075525
0002c0 82 5d 2d bb 32 60 2d bd 22 22 e7 bb 9b b2 e8 ba
       -0.002645344 -0.042328067 -0.0070536295 -0.0017753424
0002d0 0b e6 82 3c 1a 99 c8 3c 10 73 d0 bc 77 9f a9 3c
       0.015978834 0.024487067 -0.025445491 0.020705922
0002e0 35 44 4e bc cf ff 16 3b 58 1a da 3c f5 2f cf 3d
       -0.012589504 0.0023040657 0.02662389 0.10116569
0002f0 15 a5 3f 3c f3 0a de 3c 36 b9 9b 3c d4 c9 2b 3c
       0.0116970735 0.02710483 0.019009214 0.010485131
000300 a7 1f 2d bd 4c d2 e5 3b 88 30 8d bb 36 e4 a3 3b
       -0.042266514 0.0070135947 -0.004308764 0.00500157
000310 f5 11 ab bc 66 01 34 bd b0 d3 c8 bb fa 6c ef bc
       -0.020882586 -0.043946646 -0.0061287507 -0.029226769
000320 2e b5 37 bd 13 12 21 bc 5b d0 c0 bc 3e d1 94 3d
       -0.04485052 -0.009830969 -0.023536852 0.07266472
000330 9e 59 3a bc ba c9 c2 bb 0a c7 02 bd 94 67 2e bc
       -0.011373905 -0.005944458 -0.0319281 -0.010644812
000340 c1 6a cf bc 41 97 36 3d 19 7a 87 bb 82 31 8e 3b
       -0.025319459 0.04457784 -0.004134428 0.004339398
000350 9f 37 bd bc 4e ce a2 bd 1f 8c 98 bd 1f 5e 63 bd
       -0.023097811 -0.07949506 -0.07448601 -0.055509683
000360 e4 ad 71 bd 83 4a fe bc cd fa f3 bb 16 e6 3e 3b
       -0.059003726 -0.03104139 -0.0074456693 0.002912884
000370 5e 8b 99 3c 07 38 c9 ba 29 1c b5 3d 00 ea 11 3d
       0.018743213 -0.001535178 0.08843262 0.03562355
000380 9a ea 11 bc fd 0e 07 3d f8 10 a2 38 41 d1 de bc
       -0.008906031 0.03297328 7.727923e-05 -0.02719939
000390 c6 17 1f bd b5 b9 d6 3c 38 26 4d bd 13 52 0e 3d
       -0.03884103 0.026211599 -0.050085276 0.03474624
0003a0 2a 3b 41 3d 13 b2 d8 bc 4b 11 73 3c 5c 97 a4 bc
       0.047175564 -0.0264521 0.014835666 -0.020091705
0003b0 d7 73 66 3d 1e dc c1 3b 61 90 14 bd 36 bf 9c 3c
       0.056262817 0.0059161326 -0.036270503 0.019134145
0003c0 b6 9c 82 3d ea 01 ee 3c 3d 52 41 3d ef 77 09 bc
       0.063775465 0.029053647 0.04719757 -0.008390411
0003d0 56 14 0b 3d f0 57 39 bc cd c1 d9 bb 69 35 82 3d
       0.03395494 -0.01131247 -0.0066454173 0.063578434
0003e0 d6 c0 ab bc 33 5c a4 bc f2 70 a2 bb 01 1c 91 bd
       -0.020965975 -0.020063495 -0.004957312 -0.070854194
0003f0 c1 52 1f bd 18 27 20 bc 12 f6 2b bd a7 38 93 3c
       -0.03889728 -0.009774946 -0.041982718 0.01797135

transformer.layers.0.self_attn.out_proj.bias f4 [56]
000000 c8 80 e0 3c 03 bc d6 3c 90 cb d2 39 4f ff 96 3b
       0.027405158 0.026212698 0.00040205987 0.004608072
000010 54 20 9d 3b 36 b3 09 3c ed 6a c7 bb 42 fe 80 bc
       0.0047951136 0.008404544 -0.0060857446 -0.01574624
000020 a3 c5 b5 bb fd 1b cc bb ac 18 ab 3c 3e 5c 29 3c
       -0.005547242 -0.0062289224 0.020885788 0.010336934
000030 3c b4 62 bb b7 b4 2a 3c 98 b8 14 3a 72 43 26 3b
       -0.0034592291 0.010419062 0.00056732586 0.002536979
000040 6e da dc 3a 23 e7 99 bb 04 e9 85 ba a1 28 b9 bc
       0.0016849765 -0.004696743 -0.0010216539 -0.022602381
000050 4d 7a 88 bc 65 9d 48 bc 8c 71 a5 bb 21 45 42 3c
       -0.01665988 -0.012244557 -0.0050489362 0.011857302
000060 da d0 ac bb 6f f5 d9 bb 6c b3 d6 3b c7 c6 04 3c
       -0.0052739205 -0.0066515724 0.0065521505 0.008104033
000070 02 4d b2 3a 58 d7 ac bc 8f d4 9d bb 02 28 ed 3a
       0.0013603272 -0.021098778 -0.0048165987 0.0018093588
000080 dc 0f 2f ba 43 b6 07 b9 cb 07 44 3a bd 39 3e 3b
       -0.00066780834 -0.00012942501 0.0007477968 0.0029026114
000090 86 50 26 3c da 5e b4 3c 3f 46 cc 3b 74 20 11 bc
       0.010151034 0.022017885 0.00623396 -0.008857835
0000a0 a6 29 ad bc 44 1b 89 3c fa 5c e1 3c b0 b6 6a bc
       -0.021138024 0.016736634 0.027510155 -0.014325783
0000b0 29 aa 8e bc 97 38 05 3c 5c b9 e4 bb 50 8a 0d b7
       -0.017415123 0.008131168 -0.0069801044 -8.436458e-06
0000c0 87 bf b2 3b b4 c0 43 39 9a f4 06 3c 0a 10 c9 bc
       0.0054549607 0.00018668437 0.0082370285 -0.02454378
0000d0 9a 47 a5 3b 00 9a 94 bb 6e 13 d8 bb 9f f2 a0 bb
       0.005043936 -0.00453496 -0.006594113 -0.004911735

transformer.layers.0.linear1.weight f4 [224, 56]
000000 e1 cd 55 bd 77 1b 87 3d bd de 06 bd 8c 8a a8 bc
       -0.052198295 0.065970354 -0.032927264 -0.020573877
000010 70 79 7d 3b a1 41 1d bd 19 81 c2 bd 5a c6 88 3d
       0.0038677119 -0.038392667 -0.0949728 0.066784576
000020 ba 5b 21 bd 68 3b 6a bd 1f cd 9f bd 73 e9 dc 3d
       -0.039394118 -0.05718556 -0.078027956 0.107867144
000030 c0 13 27 3d 0d 49 48 bd 60 40 bf bc 63 b3 61 bd
       0.04079032 -0.04889779 -0.023346126 -0.055102717
000040 59 1f c7 3c f1 39 8b 3d 55 7c 0e bd 60 a4 ba 3c
       0.02430694 0.06798161 -0.03478654 0.022783458
000050 77 d5 78 3d 45 91 31 bc 37 ba 90 bc 52 9e ae bc
       0.06075045 -0.010837858 -0.01766692 -0.021315727
000060 c8 86 f7 bc 98 aa 08 3d 2a b1 20 3d 6e 78 16 bc
       -0.030215636 0.033365816 0.039231457 -0.009183986
000070 ff 19 65 bc ea 8d d6 bc 40 f6 55 3d 64 60 44 bc
       -0.013983249 -0.026190717 0.052236795 -0.011985872
000080 dc d9 55 3d e7 89 fa 3c e3 ba b2 3b 2e be 81 3d
       0.05220972 0.030583335 0.0054544075 0.06335102
000090 8f 70 11 3e a1 b3 60 3c e0 82 7e 3d d6 60 27 3b
       0.14203094 0.013714702 0.06213653 0.0025539896
0000a0 bd 5e 65 3c d5 d0 95 3d b9 08 ed bd 00 67 3e bc
       0.013999638 0.07315222 -0.11573929 -0.011621237
0000b0 e7 9b 81 3b c6 14 39 bd 79 1e ae bd b0 09 aa bd
       0.0039553526 -0.045185827 -0.08501906 -0.08302629
0000c0 df 72 94 3c 7d fe 5c 3d e7 5f 01 3d f9 23 6c bd
       0.018121181 0.053953636 0.0315856 -0.057651494
0000d0 6f b2 9c bd 5a e7 a9 3c b8 21 4c 3d 6b 7e 9f bd
       -0.07651221 0.0207402 0.049836844 -0.07787784
0000e0 fd bb a3 bd 83 20 f7 3b 51 9b 9d 3c 29 c6 4e bd
       -0.0799484 0.0075417175 0.0192391 -0.05048195
0000f0 81 28 c5 3c 64 2f 4c bd da 3d 79 bd 2c f7 0c bd
       0.024067165 -0.049849883 -0.060850002 -0.03441541
000100 e7 e7 21 3d eb ac 96 bd 62 16 42 bb 58 b8 03 3e
       0.0395278 -0.073572 -0.0029615392 0.1286329
000110 8a ba 06 be b1 b3 ed bc c2 53 a5 bd d8 2b 18 3d
       -0.13157097 -0.029016348 -0.08072616 0.037151188
000120 e1 41 7d bc 2f 4b 1d bd 9e a5 64 3d 5d 5c 1b 3d
       -0.015457601 -0.03840178 0.055822007 0.03792988
000130 9c de 12 3c 20 8a fa bd 9c 9a 8b bc 5b a9 b4 3c
       0.008964207 -0.122333765 -0.017041497 0.022053411
000140 77 c5 f6 3b 44 9b 91 bd ab 20 98 3d 72 5d 71 bd
       0.007530864 -0.07109693 0.07428106 -0.058927007
000150 03 9e cb 3c 0a 74 b2 bb cd 8c e9 bc 1a f2 3f bd
       0.02485562 -0.005445962 -0.028509522 -0.046861745
000160 0b fd e9 3b cb 09 ea 3c a3 48 f8 3d 8e 35 8b 3d
       0.007140761 0.028569123 0.12123229 0.06797324
000170 a5 cb 3b 3d dc c0 2a 3d d4 f5 fa bc 16 83 b9 3d
       0.045848507 0.04168783 -0.030634798 0.09058206
000180 ba c8 91 3c 63 84 c3 bd 47 0b 99 3c 74 2c bf 3c
       0.01779591 -0.09546735 0.018682135 0.023336627
000190 94 a8 fe bc 6b aa 0b bd 85 cc 07 3d 68 cb c8 bb
       -0.031086244 -0.03409807 0.03315403 -0.0061277635
0001a0 f0 4f 40 3d 1e b1 c8 3a 3b 14 12 bc 94 4e 54 bd
       0.046951234 0.0015311574 -0.008915956 -0.05183275
0001b0 a9 a2 3f 3d e8 e6 0f 3d b3 a5 06 3b 58 9d 8b bd
       0.046785984 0.03513232 0.0020545542 -0.0681712
0001c0 d5 20 1e bd 92 c3 2f 3d 4e 2e 69 bd 0d 31 b6 3c
       -0.03860553 0.04291112 -0.056928925 0.022240186
0001d0 23 53 1c bd 32 2c 4c bc c3 7b 20 bc d3 03 63 3d
       -0.038165223 -0.012461709 -0.009795132 0.05542357
0001e0 90 dd 45 3d 18 b1 a9 bd 3c 30 05 bd 46 29 59 bd
       0.048307 -0.08285731 -0.032516703 -0.053017877
0001f0 be 47 99 3c 4c 92 1b 3c 91 ad e8 bd b9 59 9b 3a
       0.018710967 0.009495329 -0.1136123 0.0011852301
000200 1c 8b 27 3d ea ae 8d 3d 4e 9b 02 bc d0 4d 1a bc
       0.04090415 0.06918128 -0.007971598 -0.009417966
000210 30 8c ea b9 0a 54 2b 3d 10 a8 60 3d 3b 1f fa 3c
       -0.00044736406 0.041828193 0.054847777 0.03053247
000220 4b 61 52 3d 4a 5b ba bc 8d 9b 1f bd 41 c5 66 3d
       0.051362317 -0.022748608 -0.038966704 0.05634046
000230 31 38 c9 bc a0 48 83 3d 22 75 a8 bd 2a 22 fc bb
       -0.024562927 0.064103365 -0.08225466 -0.0076945024
000240 8a 7e 67 3d 6e 23 c1 3d 15 4e d4 3c e6 f9 b0 bd
       0.05651716 0.09430586 0.025916139 -0.08641414
000250 34 20 55 3d 09 60 98 3c 8f 25 fd 3b b2 52 19 bd
       0.052032664 0.01860048 0.0077254246 -0.03743238
000260 d1 aa 79 3d a3 57 1d bd aa b9 55 bc 25 29 6c bc
       0.06095392 -0.038413655 -0.013044754 -0.0144141065
000270 d9 82 b5 3d 29 c8 af 3c a1 63 93 bd cc ad f2 bb
       0.08862848 0.021457748 -0.07196737 -0.007405972
000280 3e 60 e6 3d de 5f 29 bd 09 20 87 bd e9 36 5b bd
       0.112488255 -0.04135119 -0.06597907 -0.053519163
000290 eb 14 be 3d c4 41 38 3d c1 ac 48 bd bc 5f 8d bd
       0.092813335 0.044984594 -0.048992876 -0.069030255
0002a0 7e 7b 8d bc 55 13 c2 b9 d7 08 05 3d ef 19 57 3d
       -0.0172708 -0.00037016967 0.032479133 0.052514967
0002b0 4b 90 3b 3c 4f a0 5d 3d ac 97 40 3d a5 67 2d 3c
       0.011447976 0.05410796 0.047019646 0.010583793
0002c0 8d bf c0 bc 19 f1 a6 3c 5d 50 fb bc be 57 68 3c
       -0.023528839 0.020378636 -0.030677969 0.014181076
0002d0 11 76 a0 bd 67 3c 28 3d e1 ef 0e bd fd ac f3 3d
       -0.078350194 0.04107323 -0.034896735 0.11898229
0002e0 3b 24 3b bd 98 d2 db 3d 5e ca 20 3d 0a 2e 6f 3c
       -0.04568885 0.10733527 0.039255492 0.014598379
0002f0 0c 2e d7 bc af 20 b3 bd a4 d0 65 bc 13 98 80 3d
       -0.026267074 -0.08746468 -0.014026795 0.06279006
000300 40 d0 df bc 80 5c 57 3b e3 7d 14 3d 3f 95 3d 3d
       -0.027320981 0.003286153 0.036252867 0.04628491
000310 2e 59 d2 bc d8 63 a6 3c af e1 cd bd 0e f3 f0 bc
       -0.02567729 0.020311281 -0.10052811 -0.029412773
000320 38 9f 39 3c 46 77 92 3c f4 2c e5 3b f0 d1 54 bd
       0.011329465 0.01787914 0.006993884 -0.051958025
000330 a9 69 86 3c fb 29 a9 3d 0d 1f 55 3d a5 50 75 3c
       0.016407805 0.0825996 0.052031565 0.01497284
000340 5c 6f 5f 3c ff 72 21 3d b1 8c 75 3d 11 3b 01 be
       0.01363739 0.03941631 0.059948627 -0.12620188
000350 26 ac 42 bc ab 9c 3f 3d 19 2b 06 3d 5f 14 66 bc
       -0.011881864 0.04678027 0.032755945 -0.014042943
000360 5b c0 01 bd 58 39 a8 bd 2e 14 2f bd 17 3c f6 3b
       -0.031677585 -0.082140625 -0.042743854 0.0075144875
000370 c1 fb 87 bc c7 02 15 bd 7e 2e 33 bd 14 89 91 bd
       -0.016599538 -0.0363796 -0.04374551 -0.07106224
000380 82 ab 92 3c c3 76 58 bd b6 30 fc bc 28 c4 51 bc
       0.017904047 -0.052847635 -0.030784946 -0.012803115
000390 db 2a 04 bc 8f 92 7e bd db 04 62 bd a3 c8 08 3b
       -0.008066858 -0.062151488 -0.05518041 0.0020871542
0003a0 a2 55 cb 3d 97 6f e4 3d ff eb 82 bc be 98 6e bc
       0.099284425 0.111540966 -0.015981672 -0.014562784
0003b0 c3 fd 94 bc 7e 8e 22 bc d4 7c 2f bb 4e 47 a5 3d
       -0.01818741 -0.009921668 -0.0026777284 0.08070241
0003c0 0d 9a 81 bc 6e 2d 8f 3d 01 88 b4 3d 06 a7 19 3d
       -0.015820527 0.06991087 0.08815003 0.0375128
0003d0 62 74 96 3c 0a 0f b9 bd e8 b5 ba bc 09 87 98 3d
       0.018366043 -0.090360716 -0.022791818 0.07447631
0003e0 7c d7 81 bd dd e9 1e bd d8 b2 ae 3c 72 07 ed 3d
       -0.063399285 -0.03879725 0.021325514 0.11573686
0003f0 6d ed ec bd 59 53 b7 bb 7c c6 d0 bd d1 8d dd bc
       -0.11568723 -0.0055946526 -0.10194108 -0.027045162

transformer.layers.0.linear1.bias f4 [224]
000000 60 cd 68 bd 49 3a 72 bd 90 e2 4f bd 57 e4 98 bd
       -0.056836486 -0.059137616 -0.050753176 -0.07465427
000010 cc b0 c0 bc 31 66 26 bd 57 90 b3 bd 81 34 96 bd
       -0.023521803 -0.0406248 -0.08767765 -0.07334233
000020 3e 0d 53 bd 13 5b 18 bd 89 3f 49 bd f9 64 b5 bc
       -0.0515263 -0.03719623 -0.049132857 -0.022142874
000030 09 66 f8 bc 1f 2a 9d bd 01 b4 02 bd cb 83 c9 bd
       -0.030322092 -0.076740496 -0.031909946 -0.09839591
000040 49 2c b8 bd 7e a7 b1 bd a1 5b cb bc 3c 71 b7 bd
       -0.08992822 -0.08674525 -0.024823966 -0.089571446
000050 69 f6 8c bd f8 d4 85 bd f7 7d fa bd 43 a6 9d bd
       -0.068829365 -0.06534761 -0.12231057 -0.076977275
000060 77 d8 9f bd c0 da 1c bd cf 43 49 bd a6 57 c0 bd
       -0.07804959 -0.038294554 -0.049136933 -0.093917176
000070 3c 0f 00 be d6 e7 5e bd f2 03 13 bd ad 83 53 bd
       -0.12505811 -0.054420315 -0.035892434 -0.051639248
000080 eb 93 1e bd 54 fd 82 bd dc d1 be bd 1f 6c e0 bd
       -0.038715284 -0.06395975 -0.09317371 -0.109581225
000090 0a 98 6d bd 69 a5 46 bd a3 23 89 bd 90 51 5b bd
       -0.058006324 -0.04849759 -0.0669625 -0.05354458
0000a0 e1 8a 9b bd 75 8d e9 bc 6c 98 98 bd 18 8d 3b bd
       -0.075948484 -0.028509835 -0.07450947 -0.045788854
0000b0 5f 85 64 bd cc ad 9b bd c3 e5 b0 bd d6 c0 b2 bd
       -0.055791255 -0.076015085 -0.086375736 -0.08728187
0000c0 93 e3 8e bd d9 d9 57 bd c4 fa b6 bd c6 24 ff bd
       -0.06977 -0.05269799 -0.089345485 -0.12458186
0000d0 32 ff 53 bd aa b7 83 bd 45 15 af bd 77 ef d5 bd
       -0.051757045 -0.064315155 -0.08548979 -0.10446065
0000e0 ab 8b 4c bd cb 76 a8 bd a7 e5 35 bd 3b 1e d2 bd
       -0.049937885 -0.08225783 -0.044408467 -0.10259672
0000f0 5d 9b c3 bd 4f 34 64 bd bf 9c 5c bd 13 58 c8 bd
       -0.095511176 -0.055713948 -0.053860422 -0.09782424
000100 75 cd b7 bd d4 40 85 bd ed 75 02 be 9f 92 7a bd
       -0.08974735 -0.065065056 -0.12740298 -0.061174985
000110 ca 34 1d bd 89 3f 83 bd 43 22 a4 bd 6d c6 70 bd
       -0.03838042 -0.06408603 -0.080143474 -0.058782984
000120 d5 cf e4 bd 9c 18 83 bd 4e 8c 8e bd 96 73 e0 bd
       -0.11172453 -0.06401178 -0.06960355 -0.10959546
000130 af b6 d2 bd 2a 12 10 bd 32 57 db bd 7c 1e 91 bd
       -0.102887504 -0.035173573 -0.107099906 -0.070858926
000140 56 d1 89 bd 85 a8 a0 bd 1c a8 cf bd 1c 6f 20 bd
       -0.06729381 -0.078446425 -0.10139486 -0.039168462
000150 c9 01 f0 bd 62 98 87 bd e4 c5 98 bc e7 97 a1 bd
       -0.117190905 -0.066208616 -0.01864905 -0.07890301
000160 50 4e e5 bd b1 6f 5a bd e4 4d 3e bd 1a ed a8 bb
       -0.111965775 -0.053329173 -0.046461 -0.005155218
000170 d7 fd bf bd d6 63 4b bd 8b 5d 5e bd d8 e4 b8 bd
       -0.09374588 -0.049655758 -0.05428843 -0.090280235
000180 ff 97 e1 bd 11 97 98 bd 35 19 2e bd dc 21 d5 bc
       -0.11015319 -0.07450689 -0.042504508 -0.026017122
000190 ad fd eb bd 0e 47 95 bd 79 69 3c bd 13 4c 86 bd
       -0.11522994 -0.07288943 -0.045999024 -0.06557479
0001a0 bc ae 82 bd fe 70 83 bd 9e 88 db bd 7a c5 d5 bd
       -0.06380984 -0.06418036 -0.10719417 -0.10438056
0001b0 dd 96 c0 bd 07 73 a6 bd 97 ac 10 be 74 6b cc bd
       -0.09403775 -0.081274085 -0.14128338 -0.099814326
0001c0 b1 e7 2f bd 74 bc f4 bd fb b0 7c bc 31 69 c2 bd
       -0.042945568 -0.11950007 -0.015423055 -0.0949272
0001d0 55 10 a5 bd 23 e3 a7 bd 2f 3c 4e 3b 31 1b a8 bd
       -0.08059756 -0.0819762 0.0031468978 -0.08208311
0001e0 4d 34 74 bd 40 b9 00 be ef cb 5e bd bd 9a c4 bd
       -0.05962019 -0.12570667 -0.054393705 -0.095998265
0001f0 67 52 5a bc 22 1b 6b bd 70 60 2f bd ed e5 b2 bd
       -0.01332531 -0.057398923 -0.04281658 -0.08735261
000200 3b 88 99 bd 6f c0 f3 bd d5 d5 92 bd 56 e5 ab bd
       -0.07496687 -0.11901938 -0.071696915 -0.08393352
000210 39 bc 1f bd 98 ca f5 bd 6d 6e da bd c0 38 8c bd
       -0.038997862 -0.12001532 -0.10665593 -0.06846762
000220 79 ce d2 bd 12 37 a3 bd 67 8e 20 be c7 2d 89 bd
       -0.10293288 -0.07969488 -0.15679322 -0.066981845
000230 ee ed c7 bd 9b db cd bd 5a a2 f2 bd ae 42 a3 bd
       -0.09762178 -0.10051652 -0.11847372 -0.079717025
000240 54 8e 69 bd f0 a6 ec bd 25 55 a0 bd 27 8f 49 bd
       -0.0570205 -0.11555278 -0.0782874 -0.049208786
000250 14 bf d2 bc 58 f7 a8 bd 0e 94 49 bd af e1 97 bd
       -0.025725879 -0.08250302 -0.04921346 -0.074160926
000260 1c 9b fa bd 58 c3 a0 bd c9 26 90 bd ab 8d ac bd
       -0.12236616 -0.07849759 -0.07038648 -0.084254585
000270 17 72 68 bd 3e a8 a8 bd cd 0d 89 bd b3 be 6d bd
       -0.05674943 -0.08235215 -0.066920854 -0.058043193
000280 0c 8e df bd 56 18 c7 bd c4 e3 c7 bc 8e 26 28 bd
       -0.10915765 -0.097214386 -0.0244006 -0.041052394
000290 8e 92 b3 bd f6 42 c6 bc 61 4a aa bd ba 62 e4 bd
       -0.087681875 -0.024201851 -0.08314968 -0.11151643
0002a0 dd 26 a8 bd d7 9a 19 bd 23 d6 d6 bd e5 7b d1 bd
       -0.082105376 -0.037501182 -0.10490062 -0.10228709
0002b0 0e 82 61 bd f9 5c ec bd 09 17 58 bd 5b f6 e3 bd
       -0.05505567 -0.115411706 -0.052756343 -0.11130973
0002c0 1a e0 38 bd 98 41 ba bd a9 00 18 bd d7 1a 94 bd
       -0.045135595 -0.09094542 -0.037110005 -0.07231682
0002d0 4b 9b d5 bd 97 30 c0 bd 6c ea 95 bd d6 69 70 bd
       -0.104300104 -0.09384268 -0.07320103 -0.058694683
0002e0 cd c2 80 bd c7 c6 47 bd 4c 1c 56 bd f9 ca b9 bd
       -0.06287155 -0.048773553 -0.05227308 -0.09071917
0002f0 74 ce 6b bd 9d 50 4c bd af bc 82 bd 3a 5a cb bc
       -0.057569936 -0.049881566 -0.06383645 -0.024823297
000300 c9 7c 0b bd 5f 9d 67 bd 7d 37 9b bd 3a b6 91 bc
       -0.03405455 -0.056546565 -0.07578943 -0.017787088
000310 15 db 6d bd b5 c2 ba bd aa 26 ad bd 30 16 e2 bd
       -0.05807026 -0.09119169 -0.0845464 -0.11039388
000320 9c 71 ad bd 9f 59 91 bd 1d 7f ad bd 5e a6 8d bd
       -0.08468935 -0.07097172 -0.084715106 -0.06916498
000330 b9 87 ca bd c1 5b b0 bd fc 30 86 bd 68 e7 8b bd
       -0.09889168 -0.08611251 -0.06552312 -0.068312466
000340 5d da bd bd bb 33 69 bd 79 41 c5 bd b6 c7 de bd
       -0.09270165 -0.0569341 -0.096316285 -0.108779356
000350 e2 df e0 bd 2f 88 89 bd be f6 73 bd f2 7d 62 bd
       -0.10980202 -0.06715428 -0.059561484 -0.055295892
000360 62 79 a3 bd 7d 78 f6 bc 8d 29 94 bd 93 47 47 bd
       -0.07982136 -0.03008675 -0.07234488 -0.048652243
000370 50 26 d0 bd 32 53 55 bd 62 b8 88 bd 50 29 d9 bd
       -0.101635575 -0.052081294 -0.06675793 -0.10603583
